best_teacher_encoder_mark2.2.0.pth (torch, 186458 bytes, 32 tensors)

conv_block1.0.weight f4 [32, 1, 3, 3]
000000 30 03 89 3e d3 28 93 3e d9 55 87 bd 25 f2 96 3e
       0.26760244 0.28742084 -0.06608171 0.29481617
000010 b9 ce ac bd a7 6b 78 3d 6a 46 36 be eb a9 38 3e
       -0.08437867 0.06064954 -0.17800298 0.18033569
000020 da 06 93 3e 2b 6c 80 be 97 d3 8f 3e a8 ba 5d 3d
       0.28716165 -0.25082526 0.28091118 0.054133087
000030 7b 3f 73 3e 1e 08 d7 3c 40 a9 1e 3e 5d c8 e7 bc
       0.23754685 0.026248988 0.15494251 -0.028293783
000040 bd d1 8c 3e a2 3d 90 3d 7e a2 10 be 33 e7 c8 3d
       0.27503768 0.070430055 -0.14124486 0.09809723
000050 ca 0b 15 be 8c 68 1f bd 61 ce 0f be fc 11 59 3e
       -0.14555278 -0.038918063 -0.14043571 0.21198267
000060 b1 6a 8b be 68 59 30 be 71 39 e5 bd 73 40 4a be
       -0.27229837 -0.17221606 -0.11192597 -0.19751148
000070 3f 2b 13 3d 7c 62 a6 be 2a 71 9b 3e 9d 12 8f be
       0.035929915 -0.32497013 0.30359775 -0.27943888
000080 b6 80 85 3e 3e d2 7b 3d 83 e2 ce bd ad 46 5a 3e
       0.2607476 0.0614798 -0.101017974 0.21316023
000090 54 ae b3 3d ba 52 9b 3e dc 0b 84 3d 73 a2 d5 bd
       0.08773485 0.30336553 0.064475745 -0.10431375
0000a0 35 96 b1 3d 8a c0 c9 bd 9e de e0 3d fc d6 84 3e
       0.08671228 -0.09851177 0.10979961 0.2594527
0000b0 97 3a 1b 3e 3a 1c 0b be 47 33 49 3e f8 84 73 3d
       0.15159069 -0.13584986 0.19648467 0.05945298
0000c0 02 20 3a 3e 35 e8 4a be f7 32 ad be 05 f2 05 be
       0.18176273 -0.19815142 -0.33827946 -0.13080604
0000d0 c5 52 88 be 2f e1 82 3e 58 88 c4 3d 4e ad 07 3e
       -0.26625648 0.25562426 0.09596318 0.13249704
0000e0 18 92 d5 3d ba b2 7d bc b2 2b 80 3e 14 7a 78 be
       0.10428256 -0.015484506 0.25033337 -0.24265319
0000f0 60 ab 56 3c 9c 68 71 be 65 5f c2 3d 29 26 ea bd
       0.013102382 -0.23575062 0.09490851 -0.1143306
000100 5e 3a d3 3d ca 75 89 bd 75 d0 8e 3e 1f a8 46 be
       0.10313867 -0.067119196 0.27893415 -0.1940007
000110 7e 50 46 be 8f b4 46 be d9 04 9c 3e b6 83 f0 3d
       -0.19366643 -0.19404815 0.30472448 0.11743872
000120 b8 69 a5 3e 0c a5 89 be 16 aa 9d be 28 66 86 be
       0.3230722 -0.26883733 -0.30793828 -0.26249814
000130 20 a4 66 be b9 d2 11 3e d9 cf 03 3e 48 a0 92 3e
       -0.22523546 0.1424054 0.12872256 0.2863791
000140 91 3c 22 be 7f e9 53 be ff 52 46 3e 18 c0 f0 bd
       -0.15843417 -0.2069454 0.19367598 -0.11755389
000150 6a a5 56 3e 57 3f 96 bd 28 a2 4b 3e 6d dc 85 be
       0.20961538 -0.073363 0.19886076 -0.26144734
000160 10 31 2f be 0e 87 ce 3d 7b 02 91 3d 42 7b a9 bd
       -0.1710856 0.100843534 0.07080551 -0.08275463
000170 1f 66 4e 3e 7f 1e 60 3e 11 d5 7c be 9d 85 3a be
       0.20156144 0.21886633 -0.24690653 -0.18215032
000180 5e 97 99 3e 77 3b ec bd 6f 4d f6 bd 4d db a8 be
       0.29998296 -0.115347795 -0.12026488 -0.32979813
000190 5f 26 50 be b3 8e 96 3d 61 58 53 bd 82 79 83 be
       -0.20327137 0.073514365 -0.051597957 -0.2567864
0001a0 b1 e1 01 bb c6 04 5b be 14 fe 8b be 6c 21 33 be
       -0.001981836 -0.2138854 -0.27342284 -0.17493218
0001b0 1e 32 92 be 17 c7 5d be 0f 86 a4 3e 57 83 8c 3d
       -0.2855386 -0.21657978 0.3213353 0.068609886
0001c0 5e 9f c7 3d 78 73 a6 be a2 d5 67 be 18 ed 03 be
       0.09747194 -0.3250997 -0.22640088 -0.12883413
0001d0 f7 b1 00 3d 5b 6c 88 be da 14 fc bd e7 66 3c be
       0.03141972 -0.2664517 -0.123086646 -0.18398629
0001e0 f0 dd 2c 3c ad 3d f8 bd 0e 2b c3 bc 49 4a 76 be
       0.010550961 -0.12121139 -0.023824241 -0.24051775
0001f0 87 aa 82 be d7 cb 61 be 3e d3 dc bd ef 2d 84 be
       -0.25520727 -0.22050415 -0.10782479 -0.25816295
000200 10 2b 90 3e 8c 53 73 bd e6 db 95 3e f4 57 dd 3d
       0.28157854 -0.05940585 0.29269332 0.10807791
000210 1b 45 90 be 27 a3 6b 3e 47 ee bf bd ab c9 10 be
       -0.28177723 0.23011456 -0.0937162 -0.1413943
000220 93 74 93 be 09 67 aa be a4 b6 d6 3d 55 9e 6a bd
       -0.28799877 -0.33281735 0.10484055 -0.057279903
000230 15 68 17 3e 3a 3b 86 be 3b ed 86 3e 0f 20 67 be
       0.14785798 -0.2621706 0.26352867 -0.22570823
000240 db 0f cd bc 5c a2 d4 3d 0c f3 4a 3e c1 fa 75 3e
       -0.025031975 0.1038253 0.19819278 0.24021436
000250 0b ef 8b 3e 78 ae 92 be 3b c3 a1 3d 9d 5b 19 be
       0.27330813 -0.28648734 0.078985654 -0.14976354
000260 a6 77 30 bd ab 27 8a be ed 7a 8e 3e b0 1e 8b be
       -0.043082856 -0.2698339 0.2782816 -0.2717185
000270 79 a4 20 3e 47 d2 ad 3d 2e 06 95 3d 4f a3 29 be
       0.15687741 0.08487373 0.07276569 -0.16566204
000280 1d 0f a3 3e 30 ad a3 3d 9d 8f 1f 3d 8a d1 95 be
       0.31847468 0.07992017 0.03895532 -0.29261428
000290 36 38 14 3e ae 31 66 bd b1 1a 1b be 01 1f 95 3e
       0.14474568 -0.056199722 -0.151469 0.29125217
0002a0 90 50 90 3d 78 7a 36 be 11 78 23 be c1 d6 d2 bc
       0.07046616 -0.17820156 -0.1596377 -0.025737168
0002b0 82 32 35 3e a5 13 c1 bd 86 50 47 be 50 0a f4 bd
       0.17695048 -0.09427575 -0.19464311 -0.119160295
0002c0 13 d5 83 be b2 c1 db 3d c7 90 7d 3e 8d 00 a6 be
       -0.257485 0.10730304 0.2476226 -0.32422295
0002d0 6c e1 ab 3d 01 29 33 3e 09 ee 7f 3d 07 0b 08 be
       0.08392605 0.1749611 0.062482867 -0.13285457
0002e0 f3 c8 1e 3e 51 a1 20 3e a5 5e cf 3d 38 d8 a9 bd
       0.15506344 0.15686537 0.10125474 -0.082931936
0002f0 9b 68 e9 bd ad 4f 8d 3c 19 1d 97 bd 22 02 e2 bd
       -0.11396905 0.017249906 -0.07378597 -0.11035563
000300 cb c3 50 3e 65 9c 8f 3e 6a 49 11 bd 92 c2 97 bd
       0.20387189 0.28049007 -0.035470404 -0.07410158
000310 53 0a cb 3b 2c f9 8d bc 8d 08 b6 3d 3c 2d d5 3d
       0.006196299 -0.017330728 0.0888835 0.104090184
000320 53 32 95 be 0e dd 03 be d1 5b 8d 3e d6 0e fe 3d
       -0.29139957 -0.12877294 0.27609113 0.124051735
000330 d3 e7 dc bc 60 69 59 be ce fe 5f be 32 5f 96 be
       -0.026966011 -0.21231604 -0.21874544 -0.29369503
000340 cf 44 d5 bd 9b 8c f3 3d d8 4a 5e 3e cf c2 22 3e
       -0.10413515 0.11892053 0.21708238 0.15894626
000350 83 22 93 be 38 da 47 be 39 7d 41 bd 03 8f a8 3e
       -0.28737268 -0.19516838 -0.047238562 0.3292161
000360 56 91 40 3d 38 00 bd bd cc 23 03 3e 3b 61 05 be
       0.047013603 -0.09228557 0.12806624 -0.13025372
000370 eb cd 68 be d2 ad 67 3e 8d 0b 1e be e5 41 a7 bd
       -0.22734801 0.22624901 -0.15434094 -0.08166865
000380 de d2 af be eb 90 5f 3e 4f 59 7c 3e 32 df eb 3d
       -0.34340566 0.21832626 0.24643444 0.115171805
000390 e7 d1 75 be b3 11 ac be c4 1b 8f be 24 90 76 3e
       -0.24005853 -0.33607253 -0.2795087 0.24078423
0003a0 34 b6 1b 3e 1f c7 8a 3e 0c 77 48 3e 17 bd d9 3d
       0.15206224 0.27105042 0.19576663 0.10631769
0003b0 ae 07 72 3c 50 c6 6d be b8 4f 82 be 94 d5 93 be
       0.014772339 -0.23220181 -0.25451446 -0.28873885
0003c0 e5 5f 0d 3e d5 71 2c be 24 50 a9 bd 86 84 35 be
       0.13806112 -0.16840298 -0.08267239 -0.17726335
0003d0 2e 33 43 bd 79 fe 60 be ab 50 5e be 47 9e d4 3d
       -0.04765623 -0.21972074 -0.2171046 0.103817515
0003e0 76 0a d1 bd 1f 2c 45 3e 4b 11 02 be 49 9b 87 be
       -0.102070734 0.19255112 -0.12701909 -0.2648566
0003f0 56 b4 49 bd 20 d9 1b be bd 3a bc bd 67 fa 9d be
       -0.049244247 -0.15219545 -0.09190891 -0.30855104

conv_block1.0.bias f4 [32]
000000 70 0e 8f 3e 1a 34 56 bd 74 42 1b bd eb 88 09 be
       0.27940702 -0.05229578 -0.03790517 -0.13431136
000010 2a 22 9a be 2d 02 a6 be 27 4f fd 3d 7a 40 3a be
       -0.3010419 -0.32423535 0.12368613 -0.18188658
000020 52 82 5b be 15 f6 d8 bc c9 76 e3 bd 36 c0 dc bd
       -0.21436432 -0.026484529 -0.11106641 -0.10778849
000030 b5 4d 2c 3c 96 bd 90 bd 37 31 ea bd 2a 66 23 be
       0.010516574 -0.07067411 -0.11435168 -0.15956941
000040 0f f1 8a be f1 42 8f 3e 9a 77 08 be 8e 9c b4 3d
       -0.27137038 0.2798076 -0.13326874 0.08818923
000050 8b 2d ed bd 79 3c db 3c 66 10 9f 3e e4 11 1e 3e
       -0.11580952 0.026762234 0.310672 0.15436512
000060 26 f2 93 be 7a 8e 07 3e de 1a a2 3e c7 61 b3 3d
       -0.28895682 0.13237944 0.31661123 0.08758884
000070 a4 d6 64 3e cb 32 a8 3e 32 80 51 bd fe aa 8d 3d
       0.22347504 0.32851252 -0.051147647 0.0691738

conv_block1.1.weight f4 [32]
000000 0a e8 7e 3f bb 04 7f 3f ec f8 7e 3f f2 56 81 3f
       0.99572814 0.99616593 0.99598575 1.0104659
000010 ab aa 7d 3f 87 b1 7f 3f 1c 77 80 3f b2 87 82 3f
       0.99088544 0.9988026 1.0036349 1.0197661
000020 33 9c 7f 3f 8e 65 80 3f 34 bf 7e 3f 39 34 7e 3f
       0.99847716 1.0030992 0.995105 0.99298435
000030 24 6d 7f 3f 21 7d 7e 3f c1 6b 80 3f d4 7c 7e 3f
       0.9977591 0.9940968 1.0032884 0.9940922
000040 8a e9 7e 3f d1 f7 7e 3f 0e 3b 7f 3f c7 56 7f 3f
       0.995751 0.9959689 0.99699485 0.99741787
000050 d4 ac 80 3f 76 ca 7e 3f 66 86 7d 3f 0e 4e 80 3f
       1.0052743 0.9952768 0.990332 1.002382
000060 02 7e 80 3f f0 ab 7f 3f 99 fe 7e 3f 8c 85 7f 3f
       1.0038455 0.9987173 0.99607235 0.9981315
000070 03 13 82 3f 7f 45 81 3f 87 cf 7f 3f d8 6a 7f 3f
       1.0162052 1.0099334 0.99926037 0.99772406

conv_block1.1.bias f4 [32]
000000 39 ec 0d bc 2b 33 62 3b 56 44 19 3b 47 d7 b8 bb
       -0.008662277 0.0034515362 0.0023386679 -0.0056408974
000010 87 2c 4a bc 79 ca 89 3b 09 7e 36 bc 37 23 03 3d
       -0.012339718 0.004205045 -0.011138448 0.032016005
000020 73 29 2d bc 9e 99 8e bb ca fa c9 bb 4b 68 f8 bb
       -0.010568964 -0.0043518087 -0.0061639296 -0.007580792
000030 60 91 69 3b da 89 da bb 24 fe bf bb 41 49 e9 bb
       0.0035639629 -0.006669265 -0.0058591533 -0.0071193282
000040 cd e1 40 bc fd a1 3e 3b c6 08 00 bb f3 d8 6c b9
       -0.011772585 0.0029088252 -0.001953648 -0.00022587534
000050 b0 5e f9 3a 0b 28 87 3b 35 1c c7 39 59 ed 6c bb
       0.0019025411 0.0041246465 0.00037977254 -0.0036152212
000060 34 94 6c 3b e4 c9 ea 3a cc 49 51 ba db d1 54 3a
       0.0036099078 0.0017912951 -0.0007983714 0.0008118429
000070 69 42 34 3b 46 02 2a 3c 2f 24 10 bc 5d 48 16 3b
       0.0027505404 0.010376519 -0.008797689 0.0022931315

conv_block1.1.running_mean f4 [32]
000000 41 e4 48 3f a6 91 9b 3e 1a 15 c8 be ba 47 56 be
       0.7847329 0.30384558 -0.390786 -0.20925799
000010 0a 39 1c 3e 64 66 ea be 59 88 74 3e 66 8f 21 be
       0.15256134 -0.45781243 0.23880138 -0.15777358
000020 0f 4d ba be d3 a1 02 be 02 de 75 bd a3 05 49 bf
       -0.36386916 -0.12757044 -0.060026176 -0.78524226
000030 b9 6f 98 be f8 87 46 bf 67 bd c6 bd 24 99 1c bf
       -0.29772738 -0.7755122 -0.097040944 -0.61171174
000040 6a 31 c3 bd 60 40 bb 3e bf 78 92 be 25 ab af bd
       -0.09530909 0.36572552 -0.28607747 -0.08577565
000050 79 ef a4 3d c7 f8 6f 3d 5c 3b 0a 3e 33 3e a5 3d
       0.08053488 0.058586862 0.13499206 0.08068504
000060 73 2d 11 bf e5 c3 e4 3e e4 b0 11 3e da 82 ab be
       -0.56709975 0.44680706 0.14227635 -0.3349827
000070 09 48 5f 3e f0 13 7e 3e 4a 61 8a 3d f2 d7 e9 be
       0.21804823 0.24812293 0.06756838 -0.45672566

conv_block1.1.running_var f4 [32]
000000 b2 bb 5d 43 91 64 0b 43 91 ca cc 42 18 ac 96 40
       221.73318 139.39284 102.39564 4.7085075
000010 fa 06 15 43 8f d2 fc 41 44 8e 1c 41 2b b9 e5 3f
       149.02725 31.602812 9.784733 1.7947134
000020 3c 67 eb 41 61 f7 ad 40 f8 79 8d 40 37 00 cf 43
       29.425407 5.4364476 4.421139 414.00168
000030 1b 72 b3 42 aa d8 c9 43 5c f2 e3 40 fe e2 fb 42
       89.72286 403.6927 7.123335 125.943344
000040 d7 bc 07 42 a5 b1 af 41 a3 95 9a 41 f8 88 4b 42
       33.934414 21.96174 19.323065 50.88376
000050 0b 98 0c 42 37 59 2f 41 56 d2 8c 41 08 93 96 40
       35.14848 10.959281 17.602703 4.705448
000060 19 ce a6 42 d3 38 0c 42 84 e2 96 42 93 ed 13 43
       83.402534 35.055492 75.44241 147.92802
000070 a8 ac f3 40 72 09 5c 40 d7 f7 cb 41 d0 e6 78 43
       7.614826 3.4380765 25.496016 248.90161

conv_block2.0.weight f4 [64, 32, 3, 3]
000000 7a 0a 0c bd 86 f7 b8 bb 2c 83 4c 3d 85 52 11 3d
       -0.03418968 -0.0056447415 0.049929783 0.035479087
000010 bd f6 02 bd f3 ef 2c bd 9e 4c 1e bd 06 89 66 bd
       -0.03197359 -0.04222102 -0.038647287 -0.05628302
000020 dd 40 39 bd 14 e4 f7 bb 0d 8d 3d 3d dd f5 88 3c
       -0.045227874 -0.007565031 0.046277095 0.0167188
000030 fd 9a 29 bd f6 ba 32 bd 89 46 04 3d bf 1f 33 bd
       -0.041407574 -0.04363533 0.03229383 -0.043731447
000040 76 e7 eb bb b0 89 d9 3c c2 66 c0 bc db d1 83 bb
       -0.007199223 0.026554912 -0.023486499 -0.0040228195
000050 16 e1 1f bb 96 ee fb bb 7a 80 cf bc ad 7f 44 bd
       -0.0024395636 -0.007688354 -0.025329817 -0.047973324
000060 b2 84 2f bd 35 74 e9 bc 69 80 77 3d 13 95 fd bc
       -0.042851157 -0.028497795 0.060425196 -0.030954873
000070 65 fb 42 bd 63 df 09 3c 01 76 a9 3c db 21 05 3d
       -0.04760303 0.008415076 0.020686151 0.03250299
000080 2f 25 3b 3d 41 66 14 3d 72 94 83 bd 0f 9d 26 3b
       0.045689758 0.03623033 -0.06424798 0.0025423204
000090 45 09 33 3d 62 33 13 3b 51 c5 dd bc a8 af 79 3d
       0.043710012 0.0022461046 -0.027071627 0.060958534
0000a0 5e 82 8c bc ec 8f ee bc 4d 73 54 bd 0b 18 88 3b
       -0.017152008 -0.029121362 -0.051867772 0.004153257
0000b0 b4 4b d5 3c c0 dc 7a 3c 18 21 4f 3c 5d 6a 30 bd
       0.026037075 0.01531142 0.0126421675 -0.043070186
0000c0 5f 46 45 bd 9d 2a cc 3b 8b 20 73 3d b0 d5 1c 3d
       -0.048162814 0.006230666 0.059357207 0.038289726
0000d0 a7 dd 01 bd 80 a5 8d bb 9d 2f 2f bd 38 a1 e6 bc
       -0.031705525 -0.0043227077 -0.042770017 -0.028153047
0000e0 03 66 37 3c 47 fb 21 3d 68 c5 68 3d dc 13 3c bd
       0.011193755 0.039546277 0.056828886 -0.045917377
0000f0 81 95 2f 3d aa a0 18 bd 41 97 cc 3c 06 0b 46 3d
       0.042867187 -0.037262596 0.024974467 0.048350357
000100 c3 7f df 39 bb 66 49 3d 46 86 6c bd f9 c2 cf bc
       0.00042629064 0.049170237 -0.05774524 -0.025361525
000110 ba c7 ea 3c 90 71 cd bc 36 34 bb bc 6a 09 2f bd
       0.02865969 -0.025078565 -0.022852045 -0.042733587
000120 4e 26 1d 3d f5 b3 ca 3c b0 db 8c 3c 41 d7 dc bc
       0.03836661 0.024744013 0.017194599 -0.02695811
000130 c7 ce 34 bd f3 9d 5e 3c 23 7d ae 3c 3a 79 d0 bc
       -0.04414251 0.013587463 0.021299904 -0.02544843
000140 22 b8 43 bc ca 5f 33 3d 60 6e e5 3b 06 48 81 3b
       -0.011945756 0.043792523 0.007001683 0.0039453534
000150 e2 1d 5a bc 47 30 5d bd d1 10 6b bd 61 15 d9 bc
       -0.013312789 -0.05400112 -0.057389084 -0.026499452
000160 07 ef fd bc 4d 05 83 3c c9 d6 b7 bc d2 a6 05 bd
       -0.030997766 0.015993739 -0.022441285 -0.032629795
000170 04 1e 6c 3d 23 9e d6 3c 44 bb 45 3d 66 55 34 bc
       0.057645813 0.026198452 0.048274294 -0.011006689
000180 8d f6 d3 bc a4 8d b8 3c 2b fa ab bc c6 36 10 bd
       -0.0258744 0.022528477 -0.020993313 -0.035208486
000190 d4 41 4a ba 21 c6 9c bc 66 14 1a bd 25 5f 23 3d
       -0.00077154976 -0.019137444 -0.03761711 0.03988566
0001a0 8f 79 57 3d 40 d3 6e 3c 6d b8 dc bb 52 65 4f bd
       0.05260616 0.014576733 -0.0067358525 -0.050633736
0001b0 f9 f6 95 bc 09 e2 88 3c 35 53 f2 3c 96 e1 8f ba
       -0.018306242 0.016709344 0.029580692 -0.0010977264
0001c0 2c 0a 9a bc c2 bc 19 3d cb e5 2b bd 87 c1 25 3d
       -0.018803678 0.03753353 -0.041967195 0.040467765
0001d0 d8 27 a0 bc ca d5 83 3b b5 eb 1e bc e2 46 1f 3c
       -0.019550249 0.0040232884 -0.009699752 0.00972149
0001e0 42 62 3a bc cf b5 43 3d b6 35 81 3b 2f 68 51 3d
       -0.011375966 0.047780808 0.0039431704 0.051124748
0001f0 7e 46 77 3d 40 a6 c6 bc f1 cd df bc 18 f0 74 3d
       0.06036996 -0.024249196 -0.02731988 0.059799284
000200 5b 46 6e 3d 8c 9e 1e bd 64 d6 46 3a 16 6a 7d bd
       0.058172565 -0.03872542 0.0007585047 -0.06186875
000210 5f b4 28 bd 39 d6 5d 3c 6b 0e d2 3b d5 9c 5d 3c
       -0.04118764 0.013539844 0.00641041 0.013526161
000220 74 6b 83 bc 46 1c 62 3d 78 28 65 3c 16 c5 fb bc
       -0.016042449 0.055202745 0.013986699 -0.030733626
000230 2d b8 ca 3a 94 75 9e 3c d9 91 c8 3c a0 1b 17 bd
       0.0015466266 0.019343175 0.024483608 -0.03689158
000240 70 4d e4 3c ae e0 c1 bc b7 f7 30 bd c1 28 e2 bc
       0.027868956 -0.023666706 -0.04320499 -0.027607324
000250 6f b8 80 3d 29 19 66 3d 3b ba 5d 3d 4b ca 18 3d
       0.06285178 0.05617634 0.05413268 0.037302297
000260 4c dd 3c 3d ce ed c8 ba d3 54 d8 bc 37 97 0f 3d
       0.046109483 -0.001532966 -0.026407635 0.03505632
000270 8a a8 fd bc 97 c7 22 bd cf c5 af bc c0 1e 1b 3c
       -0.030964155 -0.039741125 -0.021456627 0.009467781
000280 19 a4 e2 3c d8 c6 ed bc 33 5b f9 bc 9b d1 18 3c
       0.027666138 -0.02902548 -0.030438995 0.009327318
000290 cf df 05 bd f5 4c 04 bd 68 a1 09 3d 62 7a ca bb
       -0.032684144 -0.032299954 0.033601195 -0.00617914
0002a0 3b 00 71 3d 02 06 72 3d f7 0e a5 3c 64 da ac 3c
       0.05883811 0.05908776 0.020148737 0.02110023
0002b0 6c 49 5a 3c 6b 96 2e 3b 70 9f 08 3b 7f 31 c1 3b
       0.013323169 0.002663995 0.0020846985 0.005895793
0002c0 80 1d f1 3c 0e d5 6f 3d 19 1c 4e bc b8 30 a5 bc
       0.029433012 0.058552794 -0.012579941 -0.020164832
0002d0 7e 9e 10 bc 3e c5 bf bc 2e f7 7c 3c 85 1c 4e 3d
       -0.00882685 -0.023409482 0.015439792 0.050320167
0002e0 63 c0 56 3d 93 7e 09 3d 9c 07 25 bd 48 76 ec bc
       0.052429568 0.033567976 -0.04029046 -0.028864995
0002f0 49 e9 3e bc e2 d5 74 ba f3 9c 7b 3c 9e 80 35 bd
       -0.011652299 -0.00093397324 0.015357244 -0.044312112
000300 c5 2f a2 3c eb 2f 2c bd 6b 3b 13 bd 5e b6 4e bd
       0.019798169 -0.042037886 -0.035945337 -0.050466888
000310 0a dd 55 3d f0 45 67 bd 11 87 45 3d 62 02 48 3a
       0.052212752 -0.056463182 0.048224512 0.00076297496
000320 77 fb 20 bb a8 ba 22 3d ae 2a 5a bb 30 12 27 3d
       -0.0024563947 0.03972879 -0.00332896 0.04078883
000330 e7 b8 33 3d 0a 03 50 bd 76 1f d1 3c d9 06 db 3b
       0.04387751 -0.05078415 0.025527697 0.006684166
000340 df d1 cb 3b c7 f3 26 ba c0 67 b1 3c 81 1d d1 bc
       0.006220087 -0.0006368723 0.021655917 -0.025526764
000350 85 9f 11 bc cc e0 7a 3d ed c7 26 3d ab bd 85 bb
       -0.00888813 0.06124954 0.040718008 -0.004081448
000360 3f 98 52 bd 7a 0d aa 3b c2 a4 18 bd c6 e3 60 3d
       -0.051414724 0.005189595 -0.0372665 0.05490472
000370 fd b7 fa bc f1 68 a8 3a 61 a8 19 bc c3 69 52 3c
       -0.03060531 0.0012848658 -0.009378524 0.012842598
000380 fb 61 6e 3d ef e8 62 3c 17 47 2d 3d d6 16 5c 3d
       0.05819891 0.013849481 0.042304125 0.053732716
000390 b3 78 6a 3d 5a f2 29 bc 73 08 9b bb f5 96 07 3d
       0.057244014 -0.0103727225 -0.004731232 0.03310295
0003a0 46 ef 34 bc e4 6e 03 3d 3f 93 2f bc 9c 13 22 bd
       -0.011043375 0.032088175 -0.010716259 -0.039569482
0003b0 1c da d7 3c 00 70 85 3c bd 16 01 3d 67 c1 86 3d
       0.02634912 0.016288757 0.031515826 0.06579857
0003c0 d3 3d 36 3d 21 0a 6f 3d be 4e f8 3b 68 24 48 bd
       0.044492554 0.05835927 0.007577746 -0.048862845
0003d0 cd 28 26 bd 6e 5e 0e bd 82 92 3b bd b5 6f cb bc
       -0.040566254 -0.034758024 -0.045794018 -0.02483354
0003e0 f8 9e 45 bd ef dc 4a bd 2f 76 01 bd 98 ee 59 bd
       -0.048247308 -0.049527105 -0.03160685 -0.053206056
0003f0 97 c7 1f bd 0c 31 a9 3c 0c 8c 29 3d 76 a9 fe bb
       -0.039008703 0.02065327 0.041393325 -0.007771666

conv_block2.0.bias f4 [64]
000000 b6 a4 6c bd 22 cd 38 bc c2 b3 0b 3d e9 c5 04 bd
       -0.057774268 -0.011279376 0.034106977 -0.032415304
000010 49 9d 9d bc da da e4 3a 4f 8a c6 bc 6a 1e e1 3b
       -0.019240038 0.0017460242 -0.024235873 0.0068700807
000020 b0 47 5e bd 11 27 6e 3c 22 fb 60 3d 1e 20 af 3b
       -0.054267585 0.014535681 0.054927 0.005344405
000030 c8 ea 64 3d c5 f1 4a bd 9b ae 04 bd 73 4e 97 bc
       0.055887967 -0.049546976 -0.03239308 -0.018470025
000040 d3 8f 4e 3d d6 7e 61 bd 46 d8 0a bc 8b a0 5a bd
       0.05043013 -0.0550526 -0.008474415 -0.053375762
000050 d1 73 23 3c a0 93 4c bd 75 fd 49 bd ff 98 12 bd
       0.009976343 -0.049945474 -0.04931398 -0.03579044
000060 08 8f b6 bc 6d 3c 1f 3d 58 a9 30 3c 2e af 58 bd
       -0.022285 0.038875986 0.010782562 -0.05290144
000070 3e ba 63 3d 52 e0 79 bb 63 68 6a 3c d4 1b f1 bc
       0.055597536 -0.003812809 0.014307114 -0.029432215
000080 96 66 f1 bc bf 85 38 bd cf 88 40 bd e1 29 ff bc
       -0.029467862 -0.045049425 -0.04700547 -0.0311479
000090 36 b9 ff 3c 88 a6 ce bc 70 58 4f bd 61 97 81 3c
       0.031216245 -0.025225893 -0.05062145 0.015819253
0000a0 74 6d 8c bc da 22 23 bd 3d d0 4b 3d 9c 49 5e bd
       -0.017142035 -0.03982816 0.04975914 -0.054269418
0000b0 af 8e 72 bd 9f 92 07 3d 8b 4b ff 3c f9 ab bb bc
       -0.059218105 0.033098813 0.031163951 -0.022909151
0000c0 d2 71 2a 3d ad 0c 19 bd 26 b3 b5 bc 9f 68 1d bc
       0.041612454 -0.037365604 -0.022180151 -0.009607463
0000d0 ba 9c 9c bc 42 16 14 3d 48 89 61 bd 49 af 44 3d
       -0.019117702 0.03615404 -0.055062562 0.048018727
0000e0 af b8 0d 3d 1f 4f fe bc 7b 89 f9 bc a2 9a 0a 3c
       0.034599956 -0.031043587 -0.030461064 0.008459719
0000f0 08 b6 cf ba 2d e2 52 bd 7e 94 3e 3d bf 51 2d 3d
       -0.0015847096 -0.05148523 0.046528332 0.042314287

conv_block2.1.weight f4 [64]
000000 b7 b2 81 3f 37 c8 81 3f f2 db 7d 3f 08 68 81 3f
       1.0132664 1.0139226 0.99163735 1.0109873
000010 dc 07 81 3f 8a ee 7d 3f 63 a7 80 3f 5d 74 7d 3f
       1.0080523 0.99192107 1.0051082 0.9900568
000020 10 98 81 3f bc 37 81 3f 20 52 81 3f ab aa 81 3f
       1.0124531 1.0095134 1.0103188 1.0130209
000030 21 bc 7e 3f 24 e7 81 3f 6e 6e 80 3f fa 38 7d 3f
       0.9950581 1.0148664 1.00337 0.98915064
000040 cf f6 7d 3f 41 35 7d 3f d8 10 7d 3f ab 2e 7e 3f
       0.99204725 0.98909384 0.98853827 0.9928996
000050 21 d7 7e 3f b1 40 7b 3f f0 96 7a 3f 24 da 80 3f
       0.9954701 0.98145586 0.9788656 1.0066571
000060 32 66 7d 3f 42 15 81 3f 08 20 80 3f 47 36 80 3f
       0.9898406 1.0084612 1.0009775 1.0016564
000070 73 70 80 3f ce 47 7d 3f c2 44 81 3f 49 26 81 3f
       1.0034317 0.9893769 1.0099108 1.0089809
000080 30 5a 7c 3f eb 24 7c 3f 9b 31 7c 3f a0 42 82 3f
       0.98575115 0.9849383 0.9851319 1.0176582
000090 0d ef 81 3f dc 57 7d 3f ce 14 81 3f 2a 17 81 3f
       1.0151078 0.9896219 1.0084474 1.0085194
0000a0 28 29 7e 3f bf cc 81 3f 91 81 81 3f 44 46 7d 3f
       0.9928155 1.0140609 1.0117666 0.9893534
0000b0 2b 62 7f 3f 0e ec 7a 3f 6e 85 7d 3f d8 cc 7b 3f
       0.9975917 0.9801644 0.9903172 0.9835944
0000c0 a9 32 7d 3f 29 b4 81 3f d4 a2 82 3f 7c c0 7d 3f
       0.98905426 1.0133106 1.0205941 0.9912183
0000d0 d7 47 7e 3f c2 78 7c 3f 6a 09 81 3f fe e7 7d 3f
       0.9932837 0.9862176 1.0080998 0.99182117
0000e0 91 78 81 3f 42 6d 81 3f a6 5b 7c 3f e0 49 7e 3f
       1.0114919 1.0111468 0.98577344 0.99331474
0000f0 37 a3 81 3f a0 cf 80 3f 42 c6 7c 3f 2a 7e 7c 3f
       1.0127934 1.0063362 0.9874002 0.9863001

conv_block2.1.bias f4 [64]
000000 e6 4d 15 3c a7 f8 64 3c 64 94 6d bc a8 44 29 3c
       0.009112811 0.013975299 -0.014500711 0.01033131
000010 02 cb 22 3c 96 35 fb bb 2a 60 9b 3b e3 1d 62 bc
       0.009936096 -0.0076663 0.0047416883 -0.013801071
000020 c6 c9 35 3c 8f 23 f9 3b 2b 2d f1 3b 22 5b 29 3c
       0.01109547 0.007603116 0.007360121 0.010336669
000030 09 b2 13 bc 34 20 5a 3c f9 54 e5 3a 9e d6 66 bc
       -0.009014615 0.013313342 0.0017496637 -0.014089255
000040 7a 7e d3 ba c1 e5 13 bc d4 b5 7e bc 36 50 65 bc
       -0.0016135715 -0.009026946 -0.015546281 -0.013996175
000050 25 8e 13 bc 78 cf 99 bc 71 26 9d bc bc c1 82 3b
       -0.009006058 -0.018775687 -0.01918337 0.00399038
000060 c2 c3 c9 bb 14 4c fa 3b 9a 5a 27 3b 46 c8 6d 3b
       -0.0061573694 0.0076384638 0.002553618 0.0036282702
000070 bf f8 2c 3b a6 00 2f bc cd a1 2e 3c 85 1e de 3b
       0.0026393381 -0.010681307 0.0106586935 0.0067785406
000080 d2 5d 82 bc 7a 62 6c bc cd 1a 5e bc be 17 4a 3c
       -0.015913878 -0.0144277755 -0.0135561945 0.012334762
000090 a0 07 f7 3b 4c 63 56 bc 6b 1c 87 3b 9e fa 04 3c
       0.007538751 -0.013085198 0.0041232607 0.008116392
0000a0 a3 e1 e3 bb 1a 0e 0b 3c 62 ef 29 3c ef 3d 67 bc
       -0.006954388 0.008487249 0.010372015 -0.014113887
0000b0 6e 6e 93 bb ca b8 96 bc 73 26 0f bc b8 4e 81 bc
       -0.004499248 -0.018398661 -0.008737194 -0.015784606
0000c0 6c b5 7b bc e3 a0 16 3c 36 aa 84 3c 28 f7 7c bc
       -0.015363079 0.009193632 0.016194444 -0.015439786
0000d0 38 62 02 bc 79 de 54 bc 7d 89 07 3c e9 6f 41 bc
       -0.0079579875 -0.012992495 0.008272526 -0.011806467
0000e0 3b 8b 1c 3c 42 1a 28 3c 57 aa 3f bc fb 7a 12 bc
       0.0095546795 0.010260167 -0.011698327 -0.008940454
0000f0 66 a0 32 3c 56 5f 53 3b c7 cc 49 bc 41 a1 6d bc
       0.0109025 0.003225287 -0.012316889 -0.014503778

conv_block2.1.running_mean f4 [64]
000000 54 3f f0 3c 4f 61 4e 3e a3 87 60 3e e6 e2 ac bd
       0.029327072 0.20154308 0.21926741 -0.08441715
000010 e9 3c 43 3e f7 25 dd be 34 df 95 3d 66 96 00 3e
       0.19066204 -0.43193027 0.07317963 0.12557372
000020 15 21 1c 3c e0 3f ea 3d 2b 69 0d 3e 11 d4 97 be
       0.009529372 0.114379644 0.1380965 -0.2965398
000030 69 74 f7 3e cd 7a ea 3d 52 83 23 be f8 80 c1 3e
       0.48331 0.11449204 -0.15968063 0.37793708
000040 3b 06 13 bf e2 33 03 bf 9d f2 a3 3e 36 82 25 3e
       -0.5743138 -0.5125104 0.32021037 0.16162953
000050 98 a4 a8 3d aa 17 6d 3f da fc 6f 3e 54 b7 ce be
       0.08234519 0.92614233 0.23436299 -0.40374243
000060 64 99 00 3f 3d 43 24 3c 7d f7 ac be 7f cc 9b 3e
       0.50234056 0.0100257965 -0.3378257 0.30429456
000070 90 7b f6 bd d9 8e 88 3d 32 2b 6f 3e 76 df d8 bb
       -0.120352864 0.06667871 0.23356321 -0.0066184355
000080 11 0b 08 3f fb 0f 6a bf 10 40 8c bf 85 7f 25 3d
       0.53141886 -0.91430634 -1.095705 0.040404815
000090 2d c2 46 be b8 d9 7b 3c ae ef 29 be e5 19 b8 bb
       -0.1941001 0.015371732 -0.16595337 -0.0056183212
0000a0 e4 a4 cb bc f8 86 56 3e 0c 4c 40 3d c4 72 94 3e
       -0.0248589 0.20949924 0.046947524 0.2899381
0000b0 c2 da 7f bb 52 dd 6d be 43 ab 11 bf 76 4e 26 3f
       -0.0039040302 -0.23228958 -0.5690195 0.6496347
0000c0 0e fd 51 3e bd 48 5d 3d ff 6c 91 3d 3d c4 28 3e
       0.20506689 0.054024447 0.071008675 0.16481109
0000d0 a8 d2 21 3e 8c 55 f3 be 12 78 35 3e 70 e9 40 3e
       0.15803015 -0.47526205 0.17721584 0.1883905
0000e0 40 e1 77 be 14 bc ee 3d 36 c3 47 3f e1 5b 0b be
       -0.2420702 0.11656967 0.78032243 -0.13609268
0000f0 10 06 37 bc 68 2a 41 be 39 b3 14 be 7c 76 98 be
       -0.011170879 -0.18863833 -0.14521493 -0.29777896

conv_block2.1.running_var f4 [64]
000000 46 83 2d 3d 72 a5 85 3d 88 de 3d 3e f6 c2 71 3d
       0.04236152 0.06525697 0.1854192 0.05902382
000010 d9 8b cc 3d 21 f2 97 3e 31 8b 4a 3d dd 5c 39 3e
       0.09987611 0.29676917 0.04944915 0.18101831
000020 68 ac 95 3d 5a 7b f3 3d c2 9e b5 3d ea 99 f4 3d
       0.073082745 0.11888762 0.08868171 0.11943419
000030 b0 be bf 3d c3 0e 81 3d fb 21 e1 3d 72 b3 3d 3e
       0.09362543 0.06301644 0.109928094 0.18525484
000040 92 7c e8 3e c9 c7 46 3f 73 96 12 3e ce 8a d5 3d
       0.4540754 0.776486 0.14315204 0.104268655
000050 1d 53 2e 3e 14 e1 b3 3e f2 2c 8e 3e 2b 32 7f 3e
       0.17023893 0.35132658 0.27768666 0.24921481
000060 d1 71 67 3e f1 ef c1 3d bc 6d a8 3e d6 43 08 3e
       0.22602011 0.09469593 0.3289622 0.13307127
000070 94 38 db 3d 12 71 b1 3e 2f ae 88 3d 9c dc c0 3d
       0.10704151 0.34656578 0.06673848 0.09417078
000080 3c 4d 56 3e 7c f5 24 3f 9f 49 62 3f 4a f3 12 3d
       0.209279 0.6443708 0.88393587 0.03587655
000090 5a 5c 0a 3e 30 e8 26 3e f1 e5 e8 3d f4 29 48 3d
       0.13511792 0.1629951 0.11371983 0.048868135
0000a0 25 3e c0 3d d8 67 7e 3d d7 b1 e6 3d de 0e 99 3d
       0.09386853 0.062110752 0.11264389 0.07473539
0000b0 b3 09 fb 3d 71 be 1e 3f 35 49 43 3f 3d 45 75 3e
       0.12257709 0.6200934 0.7628358 0.23952194
0000c0 79 8f 6c 3e 3c 54 35 3d 32 20 6d 3d cb df 3a 3e
       0.23101605 0.044269785 0.057892032 0.18249433
0000d0 01 85 a9 3d ca 47 26 3f a5 fa 30 3e a5 98 1f 3e
       0.082773216 0.6495329 0.17283113 0.15585573
0000e0 07 fa 5b 3e 3d f5 a4 3d 0c 58 c8 3e d2 ae be 3e
       0.21482097 0.08054588 0.39129674 0.37242752
0000f0 e4 65 a3 3d f4 f6 b8 3d fd ce b3 3d 96 43 04 3e
       0.079784185 0.090314776 0.08779714 0.12916407

head.2.weight f4 [64]
000000 f5 45 82 3f 5f 5e 7f 3f 37 b5 81 3f 58 0f 81 3f
       1.0177599 0.99753374 1.0133427 1.0082808
000010 12 f2 7e 3f f4 ad 7c 3f 21 cb 7e 3f ce d5 80 3f
       0.9958812 0.9870293 0.995287 1.0065248
000020 04 b5 80 3f 77 a8 81 3f 3f f4 80 3f a2 f5 7f 3f
       1.0055242 1.0129536 1.0074538 0.9998418
000030 66 2c 80 3f 03 9e 81 3f 45 6f 7e 3f 00 6b 7c 3f
       1.0013549 1.0126346 0.99388534 0.9860077
000040 b8 68 7e 3f 86 c4 79 3f a0 97 81 3f ab 13 81 3f
       0.9937854 0.97565496 1.0124397 1.0084127
000050 dd 15 81 3f ef c5 7c 3f 5c 8e 7d 3f 55 98 80 3f
       1.0084797 0.9873952 0.9904535 1.0046488
000060 bd 74 7c 3f 2e 82 80 3f 0f af 7d 3f 5f 2e 7e 3f
       0.9861563 1.0039728 0.99095243 0.99289507
000070 05 09 81 3f e7 a3 7e 3f 69 3f 80 3f 7f 6c 82 3f
       1.0080878 0.99468845 1.0019351 1.018936
000080 51 86 7e 3f 04 47 78 3f f7 53 77 3f 6b d9 81 3f
       0.994237 0.9698336 0.96612495 1.0144476
000090 3c 9e 81 3f 5e 0b 7e 3f 88 1a 81 3f 64 42 80 3f
       1.0126414 0.99236095 1.0086222 1.0020261
0000a0 53 96 7c 3f c6 8e 80 3f 92 7d 7f 3f 6a 4a 80 3f
       0.98666877 1.0043571 0.9980098 1.0022709
0000b0 71 86 7f 3f 7c 12 80 3f 5d d7 7d 3f c5 48 7d 3f
       0.99814516 1.0005641 0.99156743 0.9893916
0000c0 8c 09 80 3f ae a5 81 3f a4 5c 82 3f 7c da 80 3f
       1.0002913 1.0128686 1.0184522 1.0066676
0000d0 bb 3d 7e 3f 93 dd 78 3f fe 42 7f 3f 9b 4c 80 3f
       0.99312943 0.97213095 0.99711597 1.0023378
0000e0 a3 f5 7f 3f 28 3d 80 3f 57 cd 7b 3f d0 56 7d 3f
       0.99984187 1.0018663 0.983602 0.9896059
0000f0 92 2c 7f 3f 05 43 7f 3f 70 9c 79 3f 0b 53 7c 3f
       0.99677384 0.9971164 0.9750433 0.98564214

head.2.bias f4 [64]
000000 1a a6 7b 3c 30 bf 8e 3c 8e b4 94 bc 93 35 8b 3c
       0.015359426 0.01742515 -0.018152501 0.01699332
000010 8e 4f 80 3c 8d be 8e 3b 70 84 53 3c af b5 99 bc
       0.015662935 0.0043562115 0.0129099935 -0.018763391
000020 44 65 93 3c fd 6a 6f 3c 49 17 79 3c 80 98 9b 3c
       0.017992623 0.01461291 0.0152033055 0.018993616
000030 e2 dd 40 bc 4b 59 8f 3c 58 e9 4a 3c 00 ae 7b bc
       -0.011771651 0.017498633 0.012384735 -0.015361309
000040 7f 2e bf 3b 8d 18 2b bc 28 b2 c2 bc 75 07 8b bc
       0.0058344 -0.010442865 -0.023766592 -0.01697133
000050 24 c1 70 bc e9 8b a4 bc d0 bd 1f bc 1d a8 7f 3c
       -0.014694486 -0.020086246 -0.009749845 0.015604046
000060 35 72 18 bc 7d e3 75 3c e9 e7 45 3c 39 8e 2a 3c
       -0.009304573 0.015007851 0.0120792175 0.010409885
000070 b9 46 6b 3c a7 57 5f bc c2 28 80 3c bc 44 61 3c
       0.014360123 -0.013631738 0.015644435 0.013749298
000080 05 66 a2 bc 1c b2 75 bc 15 cd f3 bb f2 bb a5 3c
       -0.019824037 -0.014996078 -0.007440219 0.02023122
000090 e2 9c 88 3c 48 be 60 bc 55 f3 54 3c 93 53 85 3c
       0.01667637 -0.013717242 0.012997468 0.016275203
0000a0 86 8f 08 bc bd 9c 85 3c d5 32 9a 3c 87 4f 8d bc
       -0.008335 0.01631009 0.018823067 -0.017249836
0000b0 71 33 17 3b 03 06 99 bc f3 3c 6d bc e5 95 8a bc
       0.0023071433 -0.018679624 -0.014479863 -0.016917178
0000c0 2e 5e 8a bc 28 18 8a 3c 38 ce b2 3c dc 50 4e bc
       -0.016890611 0.016857222 0.021826848 -0.012592521
0000d0 40 38 30 bb 25 23 5a bc e7 3a 70 3c 54 11 73 bc
       -0.0026888996 -0.013314043 0.014662481 -0.014835674
0000e0 2b 30 83 3c be 93 77 3c 4a f2 c9 bb 33 c9 63 bb
       0.01601418 0.015110908 -0.0061629163 -0.0034757375
0000f0 a6 c1 86 3c 72 fb 41 3c ce bb 6d bc 4e 55 91 bc
       0.01644976 0.011839734 -0.014510108 -0.017740872

head.4.weight f4 [384, 64]
000000 a1 4a e1 3d a0 a3 76 3d c8 e1 cc bd ce 0f 5d bd
       0.110005625 0.06021464 -0.10004002 -0.05397015
000010 e0 50 5a bd 19 7d 25 3d 50 41 8f 3d f1 2a 8a bc
       -0.053299785 0.040402506 0.06994879 -0.01686618
000020 8a 9e f1 bd 42 e6 8c bd 7b 4c 65 bd b6 f3 91 bd
       -0.11797817 -0.06879856 -0.05598114 -0.07126562
000030 2f a7 6c 3d c4 91 b2 3b 9d 3f af bd c0 48 ab bd
       0.057776626 0.0054495055 -0.08557055 -0.08363485
000040 08 3d bd bd 33 91 b3 bd aa 67 eb 3c 04 44 9c bd
       -0.092401564 -0.08767929 0.028735954 -0.076301605
000050 25 2a ed bd 24 d4 95 3b fd 44 50 bc fb 69 b9 bd
       -0.11580304 0.0045724083 -0.012711761 -0.09053417
000060 7c df 1a 3d 49 19 8f 3c 86 c7 90 3c f2 a7 56 3d
       0.037810788 0.017468112 0.017673265 0.05240626
000070 f6 8a 51 bd fa d3 da bd 12 a9 a8 3d 15 fc 02 3e
       -0.051157914 -0.106849626 0.082353726 0.12791474
000080 7f 5d e6 3d ff 1a 77 3d e9 1a e2 3d 7d 49 0e 3d
       0.11248302 0.06032848 0.11040289 0.034738053
000090 81 b7 bd bd c6 1b 15 3d 6b cc a5 bd 15 16 dd bd
       -0.09263516 0.03640344 -0.0809563 -0.107952274
0000a0 fe fd 2e 3d d0 a2 7b bd 6a d2 b6 bd b2 75 e8 3d
       0.042722695 -0.061434567 -0.08926852 0.113505736
0000b0 f7 6a 05 3d 1f bc 5b 3d 1a 9c 20 bd ac 38 3e 3d
       0.032572713 0.053646203 -0.03921137 0.046440765
0000c0 ac 9c 17 bc 92 7a b2 bc 72 ea af bc c2 58 a5 3d
       -0.009253662 -0.021786962 -0.021474097 0.0807357
0000d0 43 a2 c0 bd d7 f6 22 bd 5d d5 af 3d 32 99 23 bc
       -0.09405949 -0.039786186 0.08585618 -0.009985255
0000e0 55 34 86 3d a5 14 54 bd 30 6e a8 3d dd c2 b1 bd
       0.0655295 -0.0517775 0.082241416 -0.08679745
0000f0 e2 ef 85 bd 6c 79 cc bd ed 05 d1 bd bc b4 a6 3d
       -0.06539895 -0.09984097 -0.102062084 0.08139941
000100 62 8b 8f 3d 25 a7 84 3d 0d ca 9a 3d e6 77 99 3d
       0.07009007 0.06477193 0.075580694 0.07493572
000110 f3 a5 94 3d 5b e6 91 3d 46 c5 7f bd 31 1d d4 3d
       0.07258215 0.07124015 -0.062443994 0.1035713
000120 29 55 9e 3d 94 86 e3 3c 06 ae db bc 08 2a d1 3d
       0.07731087 0.027774133 -0.02681638 0.10213095
000130 99 a4 87 bb 14 1c f4 bd 4e a6 42 bd 36 c2 2d 3b
       -0.0041394946 -0.11919418 -0.04752188 0.0026513464
000140 78 a2 78 3d 3f 80 0b 3d 59 8e 17 3d 07 db f0 3d
       0.060701817 0.034057852 0.037000988 0.11760526
000150 40 02 bc 3d 6a b8 8a bd 9b bd 28 bd 9a ea a5 bc
       0.09180117 -0.067734554 -0.041196447 -0.020253468
000160 da 32 6f bc 0b b1 d0 bd bb 64 01 bd 9a 87 c0 3d
       -0.014599526 -0.10190018 -0.031590205 0.09400864
000170 38 07 07 be f7 d6 88 3c e3 07 a8 3c 05 41 60 bd
       -0.13186347 0.016704066 0.020511573 -0.054749507
000180 66 ee 23 bd bd 2e 6c bd 1f c8 e1 bd ba 27 e8 bd
       -0.040022276 -0.05766176 -0.11024498 -0.11335702
000190 af 82 58 3d 69 5f 93 ba 28 fc 87 bc 1f 22 e2 bc
       0.052859005 -0.0011243644 -0.01659973 -0.02760416
0001a0 58 41 e9 bd 60 89 d0 bc 21 40 ed bd 3f a6 85 3d
       -0.113894165 -0.02545613 -0.11584497 0.065258496
0001b0 e8 03 13 bd 51 63 24 bd 9e ef 33 3d 0b 55 b1 bd
       -0.035892397 -0.040133778 0.04392969 -0.08658799
0001c0 39 69 97 bd 3b 3c 9c bd 9a 42 03 bd 73 2e 89 bd
       -0.073931165 -0.076286756 -0.032045938 -0.066983126
0001d0 8b a1 eb bd 8a 4c 6c 3d 65 eb 8c 3d fa 2a 40 bd
       -0.11505421 0.05769018 0.068808354 -0.046915986
0001e0 8a f7 c8 bd 8f 1e aa 3d e9 29 9c bd 32 f5 c2 bd
       -0.09812839 0.0830661 -0.07625181 -0.095194235
0001f0 ee 16 e6 bd a7 a0 d1 3c 9b 26 05 3d 3c 14 f2 3d
       -0.11234842 0.0255893 0.03250752 0.11820266
000200 c1 67 7a bd 15 a3 a3 bd 55 de 0b 3e d0 05 99 3d
       -0.061134104 -0.0799009 0.13659032 0.07471812
000210 94 c0 eb bd 89 20 f2 bd 21 32 38 3d ce e0 52 bd
       -0.11511341 -0.11822612 0.04496968 -0.05148392
000220 de 55 61 3c 58 04 a3 bc f7 96 34 bd b3 79 cc 3d
       0.0137533825 -0.019899532 -0.044089284 0.0998415
000230 31 f8 34 3d f8 06 09 3d 08 7f c1 bd fa 06 1b bd
       0.044182006 0.03345391 -0.094480574 -0.03784845
000240 93 36 72 3d 01 4c 92 3d bc 0d ee 3c 10 f6 e0 bd
       0.059134077 0.07143403 0.029059283 -0.10984433
000250 26 c0 61 bd 31 7b 00 3e 79 f2 d5 3d 0a 32 6a 3d
       -0.055114888 0.12546994 0.104466386 0.057176627
000260 f8 13 a5 bd 4d b8 98 bd 14 56 40 3d dd b9 d6 bd
       -0.08060449 -0.074570276 0.04695709 -0.10484669
000270 8c 58 d3 bc f2 80 3b 3d 6a 6a 31 3d 7e 23 36 3d
       -0.025799058 0.04577727 0.043314375 0.04446744
000280 62 3d 12 3c ef e2 b9 3d fe e4 ee bd 63 f4 87 bd
       0.008925768 0.09076487 -0.116647705 -0.0663841
000290 7d 21 59 bd c7 84 9e 3d 13 8a df bd 96 74 ae 3d
       -0.053010453 0.07740169 -0.109150074 0.08518331
0002a0 ea 2e 8a bd 6d d8 2d bd 2d ee ba 3d 98 86 00 3e
       -0.067472294 -0.042442728 0.0912746 0.12551343
0002b0 16 5a 3e 3d f9 9e c9 bc ac 4d b9 3d d2 2c 06 bc
       0.04647263 -0.024611937 0.09048018 -0.008189397
0002c0 c4 28 a9 3d a7 b4 2c 3d 2e 3b 0c bc 0f 0c 05 3e
       0.082597286 0.04216447 -0.008559031 0.12992881
0002d0 37 16 8f 3d 04 e9 f8 3d 80 63 f0 3d 5e 2e ee 3c
       0.06986659 0.12153819 0.11737728 0.029074844
0002e0 29 4e 7b bd 05 be 37 bd 9d 85 ac bc 80 de 1e bd
       -0.061353836 -0.04485895 -0.021059806 -0.03878641
0002f0 46 32 4e 3c 67 87 ed 3d 7f 80 b5 3d a9 a5 15 3d
       0.012585228 0.115980916 0.08862399 0.03653494
000300 53 3b 59 3d e6 85 91 bd 9b b8 85 3d 58 d6 c7 3d
       0.05303509 -0.07105617 0.06529351 0.0975768
000310 ca fd 12 3d 6b 2d ce 38 62 13 c9 3d 9b a1 ba bd
       0.035886563 9.831305e-05 0.0981815 -0.09112855
000320 a5 62 7d 3d ba ff 11 bd 5a 37 f7 bd 6a 3f 81 3d
       0.061861653 -0.03564427 -0.12071104 0.063109234
000330 80 ad b7 bc 07 24 01 bd 8e 58 6e bd 9e 37 10 bd
       -0.022421598 -0.0315285 -0.05818992 -0.03520929
000340 4a 65 9e bc 0c ee f1 bd 8c de 9c 3d c0 ae ee 3c
       -0.019335408 -0.11812982 0.07659635 0.029136062
000350 1f 49 71 3d 0e 95 00 3e 84 1f d4 bc 15 4e ae bd
       0.058907624 0.1255686 -0.025893934 -0.08510987
000360 95 fb b4 bd 92 2d c9 bc 5b 37 c1 bc 81 e4 35 3d
       -0.08837048 -0.024557862 -0.023585966 0.04440737
000370 1b 09 3a bb 6a d8 1c 3d f0 a1 8d bd 77 b9 fe bd
       -0.0028386775 0.038292326 -0.06915653 -0.12437718
000380 be 17 a8 3b f1 21 0f 3d d7 13 57 bd e5 21 3d bd
       0.0051297834 0.03494448 -0.052509155 -0.046174902
000390 87 01 1a bd b9 10 db bd 78 17 d6 3d ff 3f a8 3d
       -0.037599113 -0.10696549 0.10453695 0.08215331
0003a0 eb b0 ad bd b3 21 fb bd d0 83 dc 3d a4 28 da 3d
       -0.0848101 -0.12262287 0.10767329 0.10652283
0003b0 e5 c0 d2 bd 62 75 e2 3c cd ec 99 bd 10 7d c1 bd
       -0.10290698 0.027643863 -0.07515869 -0.09447682
0003c0 13 80 a4 bd 86 72 88 bb 8f 2a e3 3d 65 81 8e 3d
       -0.08032241 -0.004164043 0.11092102 0.06958274
0003d0 1f 97 d8 bd ac f2 95 3d 1b 44 e7 3d cb 91 bd 3d
       -0.10575699 0.073216766 0.11292287 0.092563234
0003e0 a2 30 e4 3d e3 00 9a bd 52 d5 84 bd 5c 9e 8f 3d
       0.111420885 -0.075197004 -0.06486 0.070126265
0003f0 0e 5c cb bd 34 3d 29 bd 47 c7 c6 3d ef 19 29 3d
       -0.099296674 -0.041318133 0.09705978 0.041284498

head.4.bias f4 [384]
000000 b9 4f eb ba b6 05 c8 bc db 78 34 bd ca be 76 bd
       -0.0017952836 -0.024416786 -0.04406057 -0.060240544
000010 c0 7c 69 3d 7d 4f d3 3c 4a 67 8c bc d4 70 12 3d
       0.057003736 0.025794739 -0.017139096 0.035752133
000020 d5 29 97 3d bc 55 81 3b 9d 5d b8 bb ab 58 e3 3d
       0.07381026 0.003946988 -0.005626394 0.111008964
000030 f1 3c 4f 3c 36 23 a6 3d 2c a1 0c 3e 66 dd 0d be
       0.012648807 0.08112185 0.13733357 -0.13853988
000040 00 3f da bc 9b 32 dc bd 4c a4 a2 3b dc 36 aa 3d
       -0.026641369 -0.1075184 0.0049634334 0.08311245
000050 a3 37 21 3d d4 a1 49 bd 9c d4 6a 3d 98 ba ca 3d
       0.0393597 -0.049226597 0.057331666 0.09898871
000060 69 cd cd bd 30 6f d2 3c 7b 15 fd bc 9b a5 52 3a
       -0.100489445 0.025687784 -0.030894032 0.00080355414
000070 c0 90 00 bd ab 6f 63 3d 6b ae 28 3d 69 60 09 bd
       -0.031388044 0.055526417 0.041181963 -0.03353921
000080 59 37 89 3c 68 c2 b7 bd 74 04 0b be 3a 5d 74 bd
       0.016750025 -0.08972627 -0.13575917 -0.05965922
000090 86 6c b1 bd a0 21 10 3c cd a7 fc 3d 05 76 09 3d
       -0.08663277 0.008797079 0.12336693 0.033559818
0000a0 a2 b6 a3 bd 97 8f e9 bb e6 fc 88 bd d8 1d cf bd
       -0.07993819 -0.007127713 -0.066888615 -0.10113114
0000b0 01 58 dd bd 89 b4 85 3d 89 1a 9c bd ea a6 9a bd
       -0.10807801 0.06528575 -0.07622249 -0.075513676
0000c0 2a 70 0b 3c b0 25 62 3a 1b 4a 9a 3d 38 40 19 3d
       0.008510629 0.00086268317 0.07533666 0.03741476
0000d0 32 13 d8 3d 64 24 98 bd 27 f3 94 3d 17 05 d2 bd
       0.10550536 -0.07428816 0.0727294 -0.10254877
0000e0 73 ac 1c bd 5f 9a f4 bd 7a a4 87 3c 89 de fa 3d
       -0.038250398 -0.119435064 0.01655792 0.122494765
0000f0 71 01 01 be 32 3f 9f bd 85 b8 da 3d 17 7f f4 bd
       -0.12598206 -0.077757254 0.106797256 -0.11938303
000100 ef 11 db bd 8d db ae 3c ee 93 50 3d 8f c0 0a 3d
       -0.1069678 0.021344924 0.050922327 0.033875044
000110 be 23 e6 3c 62 9b d0 bd ab 6d 1b bd 2d cd 95 3d
       0.028093215 -0.10185887 -0.037946384 0.07314525
000120 c1 16 ca 3d d1 6a ec 3c 3f 3b 60 bd 56 1f 91 3d
       0.09867621 0.028859528 -0.054744 0.07086055
000130 12 7a 93 bd c2 f4 bb bd 84 c7 cc 3c cb 45 b1 3d
       -0.072010174 -0.09177543 0.02499748 0.0865589
000140 0d 0f 91 3d 18 da 01 3e 4e 24 68 bd 7c 9e a7 bd
       0.07082949 0.12680852 -0.056675248 -0.08184525
000150 dc 02 c6 3d 99 b8 9b 3d 14 c6 98 3d d2 2e da bd
       0.09668514 0.076035686 0.074596554 -0.106534615
000160 0d b5 07 3e 60 45 84 3d e8 a8 91 3d 13 49 ed 3d
       0.13252659 0.06458545 0.071122944 0.115862034
000170 82 55 fe bc 0c 29 03 3e 2e 38 00 bd 25 6d 89 bd
       -0.031046633 0.12808627 -0.031303577 -0.06710271
000180 d8 6c 02 3e 75 92 8b 3d 0a 1e ba 3d 4c e2 82 3d
       0.12736833 0.06815044 0.09087761 0.06390819
000190 fc 9e 80 3d e9 ea ad 3d 18 53 bb 3d ee 62 34 3d
       0.06280324 0.08492071 0.09146708 0.04403966
0001a0 83 f9 fd bc 6c 37 d8 bc cc 5f 1a 3d 32 ca 09 be
       -0.031002766 -0.026393615 0.037689015 -0.13456038
0001b0 65 7c 47 bd af 94 fb 3d b7 99 4a bd c5 8f e8 3c
       -0.048702616 0.122842185 -0.049463 0.028388867
0001c0 db 31 98 bd b3 46 a0 3d 50 5b e8 bd e4 23 25 3d
       -0.07431384 0.07825985 -0.113455415 0.04031743
0001d0 7f cc 7f bd 3d 0e b1 bd 94 2e 38 bd 3b e5 0a be
       -0.062450882 -0.08645294 -0.044966295 -0.13564007
0001e0 d6 53 f7 3d 10 1e ae 3d 47 38 6c 3d 7c 6a 65 bd
       0.12076537 0.08501828 0.057670858 -0.056009755
0001f0 82 c3 ba bd 8f 5d ab 3c 0d 7e 23 bd 32 9b 91 bd
       -0.091193214 0.020918636 -0.039915133 -0.07109679
000200 16 d8 05 bb 18 fb ec bc f3 48 4e bd 14 b6 b7 bd
       -0.0020422987 -0.028928325 -0.05036254 -0.089702755
000210 57 0c 19 3d 32 bf b8 bd 4b 5e c1 3d 45 ff 43 bb
       0.037365284 -0.090208426 0.09441813 -0.0029906791
000220 28 b4 ce 3c 54 d2 06 be 95 6b 1e bd 50 85 1b 3d
       0.02523239 -0.13166171 -0.038676817 0.037968934
000230 e3 c2 99 bc 37 9b 0b be e5 1b 65 bd c6 d1 52 bd
       -0.018769687 -0.13633429 -0.055934805 -0.051469587
000240 7b 64 6a bc fc 14 2b bd 08 75 35 3d 86 df ab bd
       -0.014306183 -0.04176806 0.044301063 -0.08392243
000250 b4 cf 0f bd 1c 0b 30 3d ad 50 e3 bc 13 dd 58 3d
       -0.03511019 0.042979345 -0.02774843 0.052945208
000260 bb 86 c1 bd 67 5e a4 bb 03 6e fb 3d 9c bc 92 bd
       -0.09449526 -0.0050161364 0.122768424 -0.07164881
000270 75 98 ac bd 15 1e 51 bd b9 fc 3e bd 47 a1 35 bd
       -0.08427516 -0.05105408 -0.046627734 -0.04434326
000280 c9 9e a2 3d 4f 79 5d bd 82 13 ef 3d 87 ff d1 3d
       0.07940442 -0.054070767 0.11673643 0.10253816
000290 64 64 8b 3d d8 bc 9d 3d b9 3d 66 3c 29 cc ee bd
       0.06806257 0.07702035 0.014052802 -0.11660034
0002a0 58 9b bc 3d 2e 5a 78 bd e7 ea 01 be 14 b3 a4 3d
       0.09209317 -0.060632877 -0.12687264 0.08041969
0002b0 9a f3 e4 bd 49 20 2b 3c 61 2b 0e be 23 33 0c be
       -0.11179276 0.010444709 -0.13883735 -0.13691382
0002c0 87 46 2a 3d 0e f5 28 3d ba 91 a4 3d 19 d1 58 bd
       0.041571166 0.041249327 0.08035608 -0.052933786
0002d0 2e 98 65 bd c4 c7 84 bd b1 4a 0a 3e 3e 2e c9 3d
       -0.056053333 -0.06483415 0.13505055 0.09823273
0002e0 ce b8 0e be 64 6c 08 bd 2e 6a 4b bd 74 1b 4f 3c
       -0.13937685 -0.033306494 -0.049661808 0.012640823
0002f0 70 95 f2 bc 32 14 97 bd 00 33 a5 bd 0f 85 07 bd
       -0.029612273 -0.07376899 -0.08066368 -0.03308588
000300 68 04 f2 bd b8 e7 eb bd 67 95 04 be 4f 3c d0 bc
       -0.11817247 -0.11518806 -0.12947617 -0.025419382
000310 e0 dd a3 bc d9 03 86 3d 5f f3 0c 3e 32 00 ad 3d
       -0.02000326 0.06543703 0.13764714 0.08447303
000320 3f bf ed bd e2 ca 86 bb 92 84 e1 bc 83 d0 f3 bc
       -0.11608743 -0.004113541 -0.027529035 -0.029762512
000330 d8 7a 24 3d 1b f6 c3 bc 14 d2 0c 3e b7 0f 8f bd
       0.040156215 -0.023921063 0.13752013 -0.06985419
000340 bb d2 bf bd b0 e4 90 bd e4 9f 0a be c6 fb 1f bb
       -0.093663655 -0.07074869 -0.13537556 -0.0024411543
000350 3f 19 de bd 9d c0 e3 3d 2c 53 0a be b2 bf af bd
       -0.10844659 0.111207224 -0.1350829 -0.08581485
000360 7c b2 9d bd f4 13 28 bd eb d6 bd bb 24 b5 e0 bd
       -0.07700059 -0.041034654 -0.0057934425 -0.1097205
000370 fa 71 11 3d 5d 21 d6 3c 2f 77 36 bd 89 5e 3a bc
       0.035509087 0.026138956 -0.044547256 -0.011375078
000380 b8 3e 35 3d 41 3a 43 bd 9a 42 00 bd fd f0 10 3d
       0.044249266 -0.047662977 -0.031313516 0.035386074
000390 3b c3 a1 3d 3e d5 ac 3d 53 a7 c7 bd 6c 91 f7 bd
       0.078985654 0.0843911 -0.097487114 -0.12088284
0003a0 7c a0 c5 bd 22 c7 64 bd 8e bc f7 bd 3b e0 27 39
       -0.096497506 -0.05585397 -0.12096511 0.00016009893
0003b0 0d dd 3f 3d 8e 44 7d 3d fc 3f 33 3d 0d 26 95 bd
       0.04684167 0.061832957 0.043762192 -0.07282648
0003c0 4a 61 ce 3d c9 37 b3 3d fa d5 7c bd 86 39 be 3d
       0.1007715 0.087508745 -0.0617275 0.092883155
0003d0 ae 87 ce 3c a8 90 8c 3c 3f 1f 60 3d 3d 55 87 bd
       0.025211181 0.017158821 0.0547173 -0.06608055
0003e0 cb 46 0d 3d 0b 4a 04 bd f1 7a 4f 3c c9 0f dd 3d
       0.03449134 -0.032297175 0.012663589 0.107940264
0003f0 a2 d9 7f 3c 16 2b d9 bd cb 50 0f bd 41 bd a6 bc
       0.015615853 -0.10603921 -0.03498916 -0.020353915
