best_student_head_mark2.2.0.pth (torch, 5424 bytes, 4 tensors)

projection.weight f4 [2, 384]
0	0x3d409258	0.047014564
1	0x3d06075d	0.032721866
2	0xbcf44336	-0.029817205
3	0xbc002457	-0.007821164
4	0x3c4d3355	0.012524446
5	0x3c397c36	0.011321118
6	0xbd14b0d7	-0.03630146
7	0xbd2883b2	-0.04114122
8	0x3cf99c6a	0.030470092
9	0xbd260ef9	-0.040541623
10	0x3c385f48	0.011253186
11	0x3bb89712	0.0056332434
12	0xbd3fca9c	-0.046824083
13	0xbcd80b5c	-0.026372604
14	0xbd0255ca	-0.031820096
15	0x3ce565b0	0.02800259
16	0x3c376c72	0.011195289
17	0x3d1032d4	0.035204723
18	0x3c5eb120	0.013592035
19	0x3c06af5f	0.008220523
20	0xbd441d46	-0.04787948
21	0xbca0c519	-0.019625233
22	0xbc6a0a66	-0.014284706
23	0x3cba10e4	0.022713132
24	0xbd06a8a9	-0.03287569
25	0x3bb71f2b	0.0055884323
26	0xbd06d3c3	-0.032916795
27	0xbd1bb612	-0.038015433
28	0xbcf3b1d6	-0.029747885
29	0xbd269593	-0.04066999
30	0xbd3de716	-0.04636296
31	0x3b56ae79	0.0032757802
32	0xbd469e14	-0.0484906
33	0xbc6ec767	-0.014573908
34	0xbd225fa5	-0.039641995
35	0x3d288b86	0.041148685
36	0x3d1f53d0	0.03889829
37	0x3d0899d3	0.033349823
38	0xbcee2742	-0.029071454
39	0x3d384092	0.044983454
40	0x3c967605	0.018366823
41	0xbcc4d030	-0.024025053
42	0x3d341bf7	0.04397198
43	0xbce59846	-0.028026711
44	0xbd25ae0f	-0.0404492
45	0x3d35c8ba	0.04438088
46	0x3d2a3e74	0.041563466
47	0xbc873c52	-0.016508255
48	0xbc5d87d2	-0.013521152
49	0x3ce1f573	0.02758286
50	0xbd4ffb8c	-0.050777003
51	0x3d34a35e	0.04410111
52	0x3d39348c	0.04521613
53	0x3d1f6b0b	0.038920444
54	0xbbbc7cdd	-0.0057521896
55	0x3cc438cf	0.02395287
56	0xbcfb8f27	-0.030707909
57	0xbcc3d49b	-0.02390509
58	0xbbdb3c4d	-0.006690538
59	0x3c2aed81	0.010432602
60	0xbd48c690	-0.04901749
61	0x3bde3c46	0.0067820875
62	0xbd0fe66a	-0.03513185
63	0xbcdaf8b6	-0.026729923
64	0x3c79dc1c	0.015250232
65	0x3d025a8e	0.03182464
66	0xbbea9124	-0.0071584154
67	0xbbb02e94	-0.0053766463
68	0x3d3466d2	0.04404337
69	0x3cacb951	0.02108446
70	0xbcc28e5c	-0.023749523
71	0x3d0a1f76	0.03372141
72	0xbd3ea130	-0.04654044
73	0x3cb3b8b2	0.021938656
74	0x3cab4bfc	0.020910256
75	0xbd3209b5	-0.04346629
76	0x3c4f9535	0.012669851
77	0xbd184658	-0.03717646
78	0xbd292ad7	-0.04130062
79	0x3d3b555e	0.04573571
80	0x3c5f28e0	0.013620585
81	0x3c7043e4	0.014664624
82	0x3d227c96	0.039669596
83	0x3c86dc8e	0.01646259
84	0xbc3c7978	-0.01150357
85	0xbccaeee4	-0.024772115
86	0x3d044b23	0.03229822
87	0x3cde988c	0.02717235
88	0xbd3777a4	-0.044791833
89	0x3d0f7904	0.03502752
90	0xbd22cf30	-0.03974837
91	0x3d2b4a10	0.04181868
92	0xbc81dae4	-0.015851445
93	0x3c72cdf5	0.014819612
94	0x3cf746db	0.030185154
95	0x3c3c4a59	0.011492335
96	0xbc8a6291	-0.016892703
97	0x3d539b38	0.0516617
98	0x3d015f9b	0.031585317
99	0x3cd0293a	0.025410283
100	0xbd0e6612	-0.03476531
101	0x3b85e774	0.0040864293
102	0x3d38d734	0.04512711
103	0xbcc427e6	-0.023944806
104	0x3c8eabc6	0.017415892
105	0x3c1873c8	0.009304948
106	0xbd3dd224	-0.046342984
107	0x3d2256aa	0.03963343
108	0xbb8913af	-0.0041832547
109	0xbc7246be	-0.014787374
110	0x3ce7d931	0.028301807
111	0xbc95b8d5	-0.018276611
112	0x3cde58ce	0.027141955
113	0x3caae9a2	0.020863358
114	0xbd45241a	-0.048130132
115	0xbc02fd63	-0.007994982
116	0x3a304dc3	0.00067254546
117	0xbc5d07ee	-0.01349066
118	0x3d398643	0.045294058
119	0xbc92ff61	-0.01794404
120	0x3d0314a2	0.0320021
121	0x3c6e5825	0.0145473825
122	0xbd1079ad	-0.03527229
123	0xbd4054fe	-0.046956055
124	0x3cd544e9	0.026033835
125	0x3ac1f431	0.0014797506
126	0xbc7cd030	-0.015430495
127	0xbd40a3a4	-0.04703106
128	0xbd262f0d	-0.040572215
129	0xbcffe579	-0.03123735
130	0xbc2b5b3b	-0.010458763
131	0x3d640ce0	0.05567634
132	0xbd3290be	-0.04359507
133	0xbc1bb960	-0.009504646
134	0x3ce960cc	0.02848854
135	0xbcf951ae	-0.030434456
136	0x3d11b716	0.035574995
137	0xbbbf370c	-0.0058354195
138	0xba193d7e	-0.000584565
139	0xbd2eadd9	-0.042646263
140	0xbd54edef	-0.051984724
141	0x3a2497c0	0.0006278716
142	0xbcbc8205	-0.023011217
143	0xbd2f17e8	-0.04274741
144	0xbcd89405	-0.026437769
145	0x3d14d0da	0.03633199
146	0x3ca5ff5d	0.020263368
147	0xbca44fc0	-0.020057559
148	0xbcde0421	-0.027101578
149	0xbd335974	-0.04378648
150	0xbbc86ad3	-0.00611625
151	0x3d0095bd	0.0313928
152	0x3c0dc418	0.008652709
153	0x3d0744db	0.03302465
154	0xbc960dd6	-0.018317144
155	0x3cad0a7e	0.021123167
156	0xbc52b543	-0.012860599
157	0xbd1f9747	-0.03896263
158	0xbcab5fba	-0.02091967
159	0xbd3495bd	-0.044088114
160	0x3cb3d31a	0.021951247
161	0x3afe8413	0.0019418023
162	0x3d3416fb	0.04396723
163	0xbd1c7979	-0.038201783
164	0xbd181f8d	-0.037139464
165	0x3ba316f7	0.004977103
166	0x3c09abf0	0.0084028095
167	0x3d5645aa	0.05231253
168	0xbca3454d	-0.019930506
169	0x3a6af420	0.0008962769
170	0x3d180699	0.037115667
171	0xbd695a5b	-0.056970935
172	0xbb3d292e	-0.0028863656
173	0xbd4b0d5c	-0.049573287
174	0xbd1d96c0	-0.038473845
175	0xbd1b6e53	-0.03794701
176	0xbc95fc50	-0.018308789
177	0xbd4c0005	-0.049804706
178	0x3d412277	0.04715201
179	0xbd13c8f4	-0.036080316
180	0x3d3af025	0.045639176
181	0x3d06a074	0.032867864
182	0x3c187cdb	0.009307112
183	0xbd37ccfd	-0.044873226
184	0x3d421af6	0.047388993
185	0xbc47ad71	-0.012187348
186	0x3c7374f5	0.014859428
187	0x3cf719d5	0.030163685
188	0x3d36f993	0.044671606
189	0xbd27e69c	-0.04099141
190	0x3c3e7c0e	0.011626257
191	0x3d0abeda	0.033873416
192	0x3cd105cc	0.02551546
193	0xb96391ad	-0.00021702675
194	0x3c92dd4b	0.017927786
195	0x3b5bece0	0.0033557937
196	0xbcdc16a2	-0.02686626
197	0x3d4c1527	0.04982486
198	0xbc80b9f1	-0.015713664
199	0xbca3c8bf	-0.019993184
200	0xbd1146dc	-0.035467967
201	0xbd523464	-0.051319495
202	0x3d158233	0.03650112
203	0xbc9fb6e5	-0.01949639
204	0x3cb7b1f6	0.022423726
205	0xbc8586d1	-0.016299637
206	0x3d0e23e9	0.034702215
207	0x3d2db539	0.042409156
208	0xbd49a9d9	-0.049234245
209	0x3c76c3cf	0.015061333
210	0xbd16cae2	-0.036814578
211	0x3d0872ac	0.033312485
212	0xbcb771c3	-0.022393113
213	0x3c4fa605	0.0126738595
214	0xbc998cc0	-0.018743873
215	0xbb910b13	-0.004426369
216	0x3cdf3f1f	0.027251778
217	0xbd3adb61	-0.045619372
218	0x3d3d840c	0.046268508
219	0xbc61eb7d	-0.013789055
220	0xbc03bcd7	-0.008040628
221	0x3cf16ff5	0.02947233
222	0x3d495e4e	0.0491622
223	0xbc5ae94b	-0.013361285
224	0x3cc31d62	0.023817722
225	0xbbbdd209	-0.0057928604
226	0x3c9bdbf7	0.019025786
227	0xbcc731ca	-0.024315733
228	0xbd1305a3	-0.035894047
229	0xbc0a8013	-0.008453387
230	0xbcd1fe4a	-0.02563395
231	0x3cc64265	0.024201581
232	0xbcaf8b82	-0.021428827
233	0xbc803761	-0.015651407
234	0xbc272703	-0.010202172
235	0x3d1b6fdf	0.037948485
236	0xbd51e8b1	-0.051247302
237	0xbd3f7b5e	-0.04674851
238	0xbce848cb	-0.028355023
239	0xbd288fec	-0.04115288
240	0x3d43e5ec	0.047826692
241	0xbc89f28f	-0.016839294
242	0x3ccc2051	0.024917753
243	0x3d226b30	0.039653003
244	0xbd2d2d29	-0.042279396
245	0xbd2fff22	-0.042967923
246	0x3c334404	0.010941509
247	0xbd1adbb8	-0.037807196
248	0x3cfa3e48	0.030547276
249	0x3d0af892	0.03392846
250	0x3c45ed65	0.012080525
251	0x3c8cec15	0.017202416
252	0x3d1a223b	0.0376303
253	0x3c867510	0.016413242
254	0x3cabe0a8	0.020981148
255	0x3c790852	0.015199738

projection.bias f4 [2]
0	0xbbf5a693	-0.007496664
1	0xbc85c069	-0.0163271

norm.weight f4 [2]
0	0x3f813689	1.0094768
1	0x3f8a38f0	1.0798626

norm.bias f4 [2]
0	0x3c12b1eb	0.008953552
1	0x3da35a61	0.07976223
