best_student_encoder_mark2.2.0.pth (torch, 186458 bytes, 32 tensors)

conv_block1.0.weight f4 [32, 1, 3, 3]
0	0x3e89d3d8	0.26919436
1	0x3e9604cd	0.29300538
2	0xbd8737b4	-0.066024214
3	0x3e93bdd1	0.28855756
4	0xbdb1efc8	-0.08688313
5	0x3d603a0c	0.054742858
6	0xbe322f93	-0.1740096
7	0x3e3fa76c	0.1871621
8	0x3e91c31c	0.2846917
9	0xbe7c5ed6	-0.24645552
10	0x3e939490	0.28824282
11	0x3d7d699a	0.061868288
12	0x3e72aa1b	0.23697703
13	0x3c9b005e	0.018921074
14	0x3e0db4a3	0.13838439
15	0xbd1ff05a	-0.039047576
16	0x3e8c4a45	0.27400413
17	0x3d87550d	0.06608019
18	0xbe1c485b	-0.15261976
19	0x3db19d79	0.08672614
20	0xbe1d2e11	-0.15349604
21	0xbd17c9d8	-0.037057728
22	0xbe0b4c10	-0.13603234
23	0x3e6077b6	0.21920666
24	0xbe866035	-0.26245275
25	0xbe22cfd9	-0.158996
26	0xbdce3697	-0.10069006
27	0xbe4bd376	-0.19904885
28	0x3d076502	0.033055313
29	0xbea7cce7	-0.32773516
30	0x3e9aa405	0.30203262
31	0xbe90612c	-0.28199136
32	0x3e844b65	0.2583877
33	0x3d6d2c33	0.05790348
34	0xbdd8303d	-0.10556076
35	0x3e55a83b	0.20864956
36	0x3d49cd71	0.04926819
37	0x3e87ae41	0.26500133
38	0x3d00445e	0.0313152
39	0xbdcc9602	-0.09989549
40	0x3dc123c0	0.09430647
41	0xbdb0ca82	-0.08632375
42	0x3e1a8390	0.1508925
43	0x3e9bf2d0	0.3045869
44	0x3e40ec69	0.18840183
45	0xbe1271f6	-0.14301285
46	0x3e47a497	0.1949638
47	0x3d80d7b9	0.06291146
48	0x3e2c16ba	0.16805544
49	0xbe4e4a7b	-0.201456
50	0xbea69111	-0.32532552
51	0xbe0ce359	-0.13758601
52	0xbe87d552	-0.26529938
53	0x3e873716	0.26409215
54	0x3dae1053	0.08499207
55	0x3dfe6622	0.12421824
56	0x3dbffcbf	0.09374379
57	0xbc9b712c	-0.018974863
58	0x3e7d8e0b	0.24761216
59	0xbe7dcf88	-0.24786198
60	0x3bad21ce	0.005283571
61	0xbe786c06	-0.24259958
62	0x3db3af1d	0.087736346
63	0xbde9b660	-0.114117384
64	0x3dd3156a	0.10306819
65	0xbd8b2d62	-0.067957655
66	0x3e8e4e5d	0.2779416
67	0xbe483dd7	-0.1955484
68	0xbe48a5e1	-0.19594528
69	0xbe488cb2	-0.19584921
70	0x3e9b0229	0.30275086
71	0x3deaca98	0.11464423
72	0x3ea544a1	0.32278922
73	0xbe8c2428	-0.27371335
74	0xbea6c311	-0.325707
75	0xbe81b396	-0.25332326
76	0xbe5e122b	-0.21686618
77	0x3e12788f	0.14303802
78	0x3e027478	0.12739742
79	0x3e91eb20	0.284997
80	0xbe278aec	-0.16361588
81	0xbe65f034	-0.22454911
82	0x3e388948	0.18021119
83	0xbe0584d2	-0.13038948
84	0x3e4e1285	0.20124252
85	0xbda34ca2	-0.07973601
86	0x3e440900	0.19144058
87	0xbe86008c	-0.26172292
88	0xbe2ecba8	-0.17069876
89	0x3dcdb946	0.10045104
90	0x3d8fdc23	0.070244096
91	0xbdaecd7a	-0.08535285
92	0x3e4aec25	0.19816644
93	0x3e63808a	0.22217003
94	0xbe7b4f75	-0.24542029
95	0xbe39bdb1	-0.18138768
96	0x3e997dcd	0.2997879
97	0xbdefbb7f	-0.11705684
98	0xbdfa5324	-0.12222889
99	0xbea72a07	-0.32649252
100	0xbe43677c	-0.19082445
101	0x3db60d3b	0.08889242
102	0xbd5679ce	-0.052362256
103	0xbe7e6588	-0.24843419
104	0x3c36e853	0.011163789
105	0xbe62e803	-0.22158818
106	0xbe8f2742	-0.2795964
107	0xbe3634cc	-0.17793578
108	0xbe93fb3f	-0.28902623
109	0xbe586771	-0.2113321
110	0x3eab4bb1	0.33456185
111	0x3d90c6e0	0.070691824
112	0x3ddee2cf	0.10883104
113	0xbe9ba817	-0.3040168
114	0xbe665889	-0.22494711
115	0xbdf413a6	-0.1191781
116	0x3d46a8b1	0.04850072
117	0xbe934799	-0.28765562
118	0xbe129043	-0.14312844
119	0xbe505d5b	-0.20348112
120	0x3be8a7c4	0.0071000773
121	0xbdf7012f	-0.12060773
122	0xbcd27ea7	-0.025695158
123	0xbe65ca39	-0.22440423
124	0xbe6c61f7	-0.23084246
125	0xbe4bfc4b	-0.19920461
126	0xbde73f87	-0.11291414
127	0xbe864710	-0.2622609
128	0x3e8f01d8	0.27931094
129	0xbd8418a0	-0.06450009
130	0x3e937100	0.2879715
131	0x3dd6eeea	0.10494788
132	0xbe90fd71	-0.2831836
133	0x3e6ad4f0	0.22932792
134	0xbdbed3f8	-0.093177736
135	0xbe0a2616	-0.13491091
136	0xbe918d46	-0.28428096
137	0xbeaff2d8	-0.34364963
138	0x3ddd7479	0.10813231
139	0xbd7860f4	-0.060639337
140	0x3e0beaeb	0.13663833
141	0xbe84a8cb	-0.2591003
142	0x3e86e2bb	0.26344857
143	0xbe6c521e	-0.230782
144	0xbd45dc26	-0.048305653
145	0x3d9dcbf1	0.07704914
146	0x3e370488	0.17872822
147	0x3e855ffb	0.2604979
148	0x3e99ca29	0.30037048
149	0xbe8592ad	-0.26088467
150	0x3d971254	0.07376543
151	0xbe1b9816	-0.15194735
152	0xbd32f83d	-0.04369377
153	0xbe81bf15	-0.25341097
154	0x3e973f16	0.29540318
155	0xbe8282c5	-0.25490394
156	0x3e3650ae	0.17804214
157	0x3dd8ea35	0.105915464
158	0x3dbe64b7	0.092965536
159	0xbe294a61	-0.1653228
160	0x3ea2a402	0.31765753
161	0x3da50297	0.080571346
162	0x3d1f962f	0.038961586
163	0xbe98dbff	-0.29855344
164	0x3e0ce1b8	0.1375798
165	0xbd383b52	-0.044978447
166	0xbe1675b4	-0.14693338
167	0x3e95b835	0.292421
168	0x3da10f4c	0.07864246
169	0xbe341ebe	-0.17589852
170	0xbe245130	-0.16046596
171	0xbd03c77f	-0.032172676
172	0x3e2f4447	0.1711589
173	0xbdcc06db	-0.09962245
174	0xbe47d9f1	-0.19516732
175	0xbdf162d5	-0.11786429
176	0xbe82f537	-0.2557771
177	0x3df7c8f5	0.120988764
178	0x3e86181d	0.26190272
179	0xbe9e20fc	-0.3088454
180	0x3da17ead	0.078854896
181	0x3e34a9e3	0.17642932
182	0x3d86bb23	0.06578662
183	0xbdfb2ae3	-0.12264039
184	0x3e2e138a	0.16999641
185	0x3e31581f	0.17318772
186	0x3e063b66	0.13108596
187	0xbd572603	-0.052526485
188	0xbda63030	-0.0811466
189	0x3d1b61f1	0.0379352
190	0xbd666a5c	-0.056253776
191	0xbdc24656	-0.09486072
192	0x3e5e4093	0.2170432
193	0x3e95dc32	0.29269558
194	0xbcc8222f	-0.024430363
195	0xbd8e0c2d	-0.06935916
196	0x3c3805d8	0.011231862
197	0xbc4820d9	-0.012214863
198	0x3da6b3d4	0.08139768
199	0x3dc2fb0d	0.095205404
200	0xbe9994cc	-0.29996336
201	0xbdfc782c	-0.123276085
202	0x3e8fa873	0.28058204
203	0x3e04bbb7	0.12962233
204	0xbc908ba1	-0.017644705
205	0xbe4f49ad	-0.20242949
206	0xbe532f5b	-0.20623533
207	0xbe95693a	-0.29181844
208	0xbdd292c2	-0.10281898
209	0x3df1192b	0.117723785
210	0x3e604529	0.21901383
211	0x3e242232	0.1602867
212	0xbe93b82d	-0.28851452
213	0xbe46b1d8	-0.1940378
214	0xbd3cf8e1	-0.046135787
215	0x3ea848d9	0.32868078
216	0x3d5191de	0.0511645
217	0xbdacfe1b	-0.08446904
218	0x3e0c9ac3	0.13730912
219	0xbe037803	-0.1283875
220	0xbe610d92	-0.21977833
221	0x3e71197e	0.23544881
222	0xbe20a5e0	-0.15688276
223	0xbd910415	-0.07080857
224	0xbeabcf15	-0.3355643
225	0x3e603ec1	0.21898939
226	0x3e7baeb8	0.24578369
227	0x3deb2395	0.11481396
228	0xbe78103d	-0.24224944
229	0xbead9cc2	-0.3390866
230	0xbe90b026	-0.2825939
231	0x3e720f32	0.23638609
232	0x3e15c22f	0.14624856
233	0x3e87e250	0.2653985
234	0x3e3cdb0b	0.18442933
235	0x3dc781c7	0.0974155
236	0x3c3e97ba	0.011632854
237	0xbe7bbce5	-0.24583776
238	0xbe88c3fd	-0.26712027
239	0xbe9701eb	-0.2949365
240	0x3e008000	0.12548828
241	0xbe31e1ee	-0.17371342
242	0xbd9fdf4b	-0.07806262
243	0xbe3118ea	-0.1729466
244	0xbd3116db	-0.043234687
245	0xbe5f6065	-0.21814115
246	0xbe67006f	-0.22558759
247	0x3dce509d	0.100739695
248	0xbde56bf8	-0.11202234
249	0x3e439a32	0.1910179
250	0xbdfb0db5	-0.12258474
251	0xbe85a650	-0.2610345
252	0xbd55b3a0	-0.052173257
253	0xbe1f212e	-0.15540001
254	0xbdc46870	-0.09590232
255	0xbe9eca33	-0.3101364

conv_block1.0.bias f4 [32]
0	0x3e8f0af5	0.27938047
1	0xbd561864	-0.052269354
2	0xbd1be161	-0.038056735
3	0xbe099166	-0.13434371
4	0xbe9a2d35	-0.30112615
5	0xbea5feb9	-0.324209
6	0x3dfccb9b	0.12343522
7	0xbe3e31ec	-0.18573731
8	0xbe5b0b62	-0.21391061
9	0xbcd4d0c5	-0.025978455
10	0xbde479b8	-0.111560285
11	0xbddcd30e	-0.10782443
12	0x3c2e984e	0.010656429
13	0xbd90d414	-0.07071701
14	0xbdebe4b7	-0.11518233
15	0xbe236f1c	-0.15960354
16	0xbe8ae0f5	-0.27124754
17	0x3e8f1ac0	0.27950096
18	0xbe088d78	-0.13335216
19	0x3db48b50	0.08815634
20	0xbdecbe42	-0.11559726
21	0x3cdec763	0.027194684
22	0x3e9f20c9	0.310797
23	0x3e1c3521	0.15254642
24	0xbe93f114	-0.28894866
25	0x3e0780b1	0.13232686
26	0x3ea1f56f	0.31632563
27	0x3db3b8a9	0.087754555
28	0x3e64ba56	0.22336707
29	0x3ea8072d	0.32817975
30	0xbd50fd4c	-0.051022813
31	0x3d8d9e4a	0.06914957

conv_block1.1.weight f4 [32]
0	0x3f7ec159	0.99513775
1	0x3f7ec2c1	0.9951592
2	0x3f8007e0	1.0002403
3	0x3f80a809	1.005128
4	0x3f7fb478	0.9988475
5	0x3f7f2bd9	0.9967628
6	0x3f810506	1.0079658
7	0x3f83adc0	1.0287399
8	0x3f80137b	1.0005945
9	0x3f7f6048	0.9975629
10	0x3f7f5c29	0.9975
11	0x3f7f0297	0.99613327
12	0x3f7f3d83	0.99703234
13	0x3f7ef267	0.99588627
14	0x3f804ee4	1.0024076
15	0x3f7fc697	0.999124
16	0x3f7fc2e7	0.9990677
17	0x3f7e2256	0.9927114
18	0x3f7ff780	0.9998703
19	0x3f7fce13	0.9992382
20	0x3f7ff61b	0.999849
21	0x3f7f014d	0.9961136
22	0x3f7f6451	0.99762446
23	0x3f7fc95d	0.9991663
24	0x3f7fec63	0.9997007
25	0x3f800e2e	1.0004327
26	0x3f7fab82	0.99871075
27	0x3f7fca84	0.9991839
28	0x3f81cc2c	1.0140433
29	0x3f7f2637	0.99667686
30	0x3f7f1328	0.99638605
31	0x3f7f973d	0.99840146

conv_block1.1.bias f4 [32]
0	0x3a9d90d7	0.0012021315
1	0xba1b1f32	-0.0005917429
2	0x3a758071	0.00093651476
3	0xbbc0ac99	-0.0058799502
4	0xbb22a28f	-0.002481613
5	0xbaa099c7	-0.001225286
6	0xbc18ca52	-0.009325581
7	0x3d026f09	0.031844173
8	0xbb87f3a4	-0.0041489173
9	0xbb5e2368	-0.0033895615
10	0xbbddc20c	-0.006767517
11	0xbb0c77d1	-0.002143372
12	0xb75ab2e8	-1.3035467e-05
13	0x3aac5817	0.0013148811
14	0xbbaded16	-0.005307804
15	0xbaa2d91f	-0.0012424326
16	0xbb88474e	-0.004158891
17	0xbbb6419a	-0.0055620195
18	0xbade3e86	-0.0016955889
19	0xbb2f6a86	-0.0026766374
20	0xbb90c144	-0.0044175703
21	0x3993aa6c	0.00028165
22	0x3b1e2002	0.0024127965
23	0x3b4bd030	0.0031099431
24	0x3afe185b	0.0019385921
25	0xbba0d274	-0.0049079005
26	0x3b06554f	0.0020497625
27	0x3928b4e1	0.00016089111
28	0x3be2976f	0.006915025
29	0xbb984209	-0.004646544
30	0xbb206da2	-0.0024479409
31	0xb8b0778b	-8.4146006e-05

conv_block1.1.running_mean f4 [32]
0	0xbf5e95dd	-0.86947423
1	0xbf795380	-0.97393036
2	0x3f362ea6	0.7116493
3	0xbe12a799	-0.14321746
4	0xbfa1a8e1	-1.2629663
5	0x3e19af54	0.15008289
6	0x3b663313	0.0035125657
7	0xbe5d193b	-0.21591656
8	0x3e40dbb9	0.18833818
9	0x3e131eb3	0.1436718
10	0xbde91305	-0.11380581
11	0x3fb84e90	1.4398975
12	0x3f29268b	0.66074437
13	0x3fbcae78	1.4740744
14	0xbe8231f8	-0.25428748
15	0x3f252231	0.64505297
16	0xbf366da4	-0.7126105
17	0xbe668a01	-0.22513582
18	0x3e265980	0.16245079
19	0x3f264ab4	0.6495774
20	0xbf356e64	-0.7087157
21	0xbebd30ea	-0.3695138
22	0x3f0f7abf	0.5604667
23	0x3e67e904	0.22647482
24	0x3ebe232d	0.37136212
25	0xbe07bb18	-0.13254964
26	0x3f91b033	1.1381897
27	0x3f83bc71	1.0291883
28	0x3e9afb42	0.3026982
29	0x3ecddf4a	0.4020942
30	0xbf0bd5bb	-0.54623
31	0x3fa51be8	1.2899141

conv_block1.1.running_var f4 [32]
0	0x43629da9	226.61586
1	0x4306bf93	134.74834
2	0x42c6a554	99.32291
3	0x409b9855	4.862345
4	0x4325e458	165.89197
5	0x42045385	33.081562
6	0x40b54ae2	5.665391
7	0x3fcc0e74	1.5941911
8	0x41fdab16	31.708538
9	0x4118f2d8	9.559288
10	0x40861cc0	4.1910095
11	0x43c92814	402.3131
12	0x42905486	72.165085
13	0x43cf3528	414.41528
14	0x40c348d9	6.1026425
15	0x4304eb7b	132.91985
16	0x42082112	34.032295
17	0x4216cba3	37.698864
18	0x418e9b1c	17.825737
19	0x423b2979	46.7905
20	0x42755ce9	61.340733
21	0x41b19276	22.196514
22	0x417badfe	15.729979
23	0x408de9f3	4.4348083
24	0x428e8970	71.26843
25	0x42023136	32.548058
26	0x42bc48e2	94.14235
27	0x4318ac96	152.67416
28	0x41029175	8.160512
29	0x40b1d8be	5.557708
30	0x42161c53	37.52766
31	0x438023b2	256.27887

conv_block2.0.weight f4 [64, 32, 3, 3]
0	0xbd09a3b7	-0.033603396
1	0xbb9584e9	-0.0045629633
2	0x3d5167d8	0.051124424
3	0x3d11f481	0.035633568
4	0xbd0229ad	-0.031778026
5	0xbd2af73c	-0.041739687
6	0xbd1b7761	-0.037955645
7	0xbd64a235	-0.055818755
8	0xbd333a0a	-0.043756522
9	0xbbddb000	-0.0067653656
10	0x3d424051	0.04742462
11	0x3c8ffcaf	0.017576544
12	0xbd26bbf4	-0.04070659
13	0xbd2fa050	-0.042877495
14	0x3d087efe	0.033324234
15	0xbd2f5d47	-0.042813566
16	0xbbcf3eb1	-0.006324612
17	0x3ce8ca66	0.028416824
18	0xbcceb8c9	-0.025234597
19	0xbb76caaf	-0.003765743
20	0xbb53b6c0	-0.0032304972
21	0xbc0f9365	-0.008763169
22	0xbcca6672	-0.024707053
23	0xbd44013b	-0.047852736
24	0xbd2d8d84	-0.042371288
25	0xbcdd6eb6	-0.02703033
26	0x3d7a6d31	0.06113929
27	0xbd0989bb	-0.033578616
28	0xbd37be3c	-0.044859156
29	0x3c1d6e3b	0.0096088005
30	0x3c864339	0.016389476
31	0x3d08bf62	0.033385642
32	0x3d2d1d8e	0.042264514
33	0x3cfc089c	0.030765824
34	0xbd756168	-0.059907347
35	0x3b626334	0.0034543993
36	0x3d3577b8	0.044303626
37	0x3b50e55b	0.0031874988
38	0xbcd63806	-0.026149761
39	0x3d7808e2	0.060555346
40	0xbc8f09cf	-0.017460732
41	0xbcee59c6	-0.029095542
42	0xbd52d4a2	-0.051472314
43	0x3b8cefdd	0.004301055
44	0x3cdd0cd6	0.02698366
45	0x3c494334	0.012284089
46	0x3c37c694	0.011216778
47	0xbd39a5f1	-0.04532427
48	0xbd47640d	-0.0486794
49	0x3bd23614	0.006415138
50	0x3d712a26	0.058878087
51	0x3d190dc3	0.03736664
52	0xbd014d42	-0.03156782
53	0xbbad4f28	-0.005288977
54	0xbd26a83b	-0.04068778
55	0xbccf8703	-0.025332933
56	0x3c53e41d	0.012932804
57	0x3d28e4c0	0.041233778
58	0x3d6d7938	0.05797693
59	0xbd334701	-0.043768886
60	0x3d3e11c5	0.046403665
61	0xbd0cccbd	-0.03437494
62	0x3ce9b74c	0.028529786
63	0x3d493509	0.049122844
64	0x3963d89e	0.00021729103
65	0x3d6118c3	0.054955255
66	0xbd68285b	-0.05667911
67	0xbce4493c	-0.027866952
68	0x3ce334ed	0.027735198
69	0xbcbed34e	-0.023294117
70	0xbcba7c74	-0.022764422
71	0xbd20b76f	-0.039237436
72	0x3d08956b	0.03334562
73	0x3cb58cc9	0.022161858
74	0x3c4c3dd3	0.012465912
75	0xbce554a1	-0.027994456
76	0xbd2e3f7f	-0.042541023
77	0x3c2da192	0.010597603
78	0x3ca067dd	0.019580776
79	0xbccb7828	-0.024837568
80	0xbc5cd121	-0.013477595
81	0x3d25e4df	0.04050147
82	0x3bc84f01	0.0061129336
83	0x3b3b307c	0.0028562834
84	0xbc7a37a0	-0.015272051
85	0xbd5cb289	-0.053881202
86	0xbd67d30f	-0.056597766
87	0xbcd16f47	-0.025565756
88	0xbce8c796	-0.028415482
89	0x3c97a536	0.018511396
90	0xbc9d58b9	-0.019207345
91	0xbcbfadf6	-0.02339838
92	0x3d61db6e	0.055140905
93	0x3cfdd835	0.030986885
94	0x3d6a37f6	0.057182275
95	0xbc5f1a35	-0.013617088
96	0xbc9cbc84	-0.01913286
97	0x3d0c0a0e	0.034189276
98	0xbcbe9dcf	-0.023268608
99	0xbd183e44	-0.037168756
100	0xba8e5250	-0.0010858271
101	0xbca82028	-0.020523146
102	0xbd1e820f	-0.038698252
103	0x3d26272d	0.040564705
104	0x3d575c31	0.052578155
105	0x3c6d9d9e	0.014502911
106	0xbbc02546	-0.0058638183
107	0xbd4e3e9e	-0.050352685
108	0xbca5e094	-0.020248689
109	0x3c878e7d	0.016547436
110	0x3ce93f3d	0.028472537
111	0xbb12b159	-0.002238354
112	0xbc9274af	-0.017877905
113	0x3d1a5976	0.037682973
114	0xbd2c576e	-0.042075567
115	0x3d296f92	0.041366167
116	0xbc9d1f35	-0.01917992
117	0x3ac67411	0.0015140792
118	0xbc2dff5d	-0.010619965
119	0x3bf98486	0.007614675
120	0xbc4a38c9	-0.01234264
121	0x3d464422	0.04840482
122	0x3b5e9e17	0.003396874
123	0x3d50dcf7	0.05099198
124	0x3d7aceb0	0.06123227
125	0xbcc5fd01	-0.024168493
126	0xbcd99684	-0.02656103
127	0x3d7027c3	0.05863167
128	0x3d71ea42	0.059061296
129	0xbd1fc9cb	-0.039010804
130	0xb98c8fcf	-0.00026810027
131	0xbd684f6e	-0.056716375
132	0xbd265abf	-0.040613886
133	0x3c571679	0.0131279165
134	0x3c4d2362	0.012520643
135	0x3c20a1ac	0.009804171
136	0xbc99be98	-0.01876764
137	0x3d53e067	0.05172768
138	0x3c55b13c	0.013042744
139	0xbcf75ca3	-0.03019554
140	0x3a0405dd	0.0005036274
141	0x3c9a2f12	0.018821273
142	0x3ccde34f	0.025132803
143	0xbd182d77	-0.037152734
144	0x3cf0243b	0.029314151
145	0xbcb89753	-0.022533095
146	0xbd2a5d6c	-0.041593
147	0xbcdbc843	-0.02682889
148	0x3d811884	0.06303504
149	0x3d69db5a	0.057093956
150	0x3d647a99	0.05578098
151	0x3d1b3e94	0.037901476
152	0x3d42de3b	0.047575217
153	0xb9abc159	-0.00032759717
154	0xbcccdd72	-0.025007937
155	0x3d184f4e	0.037185006
156	0xbcee1020	-0.029060423
157	0xbd1cb0f0	-0.03825468
158	0xbc94ecd6	-0.018179338
159	0x3c2cd06b	0.010547738
160	0x3ce92840	0.028461576
161	0xbcd32bb0	-0.025777668
162	0xbd06b46b	-0.032886904
163	0x3c19913c	0.0093730055
164	0xbd0bf527	-0.034169342
165	0xbd0d943e	-0.034565203
166	0x3d0d67df	0.034522887
167	0xbbdb164d	-0.006686008
168	0x3d6ed053	0.058304142
169	0x3d77c926	0.060494564
170	0x3ca91f1a	0.020644713
171	0x3c8a89ce	0.016911414
172	0x3c2707ee	0.010194762
173	0xbb0a7f16	-0.0021132878
174	0x3a91c891	0.0011122396
175	0x3bd6f88f	0.006560392
176	0x3ce3121e	0.0277186
177	0x3d69a129	0.05703846
178	0xbc5240cb	-0.012832831
179	0xbcb6504d	-0.022255087
180	0xbbf628ac	-0.0075121727
181	0xbcb18496	-0.021669667
182	0x3c887e5e	0.01666182
183	0x3d4fc549	0.050725255
184	0x3d58f8c6	0.052971624
185	0x3d0b7928	0.03405109
186	0xbd2236a0	-0.039602876
187	0xbce5c9d6	-0.028050344
188	0xbc253e49	-0.010085651
189	0xbacd5f01	-0.0015668572
190	0x3c6ec250	0.014572695
191	0xbd33f97d	-0.043939102
192	0x3cb640d2	0.022247706
193	0xbd26b332	-0.040698238
194	0xbd075d32	-0.033047862
195	0xbd462502	-0.048375137
196	0x3d5824a4	0.05276932
197	0xbd6026fe	-0.054724686
198	0x3d3ddeb5	0.046354968
199	0x395642e8	0.00020433555
200	0xbb9fa743	-0.004872234
201	0x3d13eaef	0.036112722
202	0xbbb966b6	-0.005657996
203	0x3d17eada	0.037089206
204	0x3d3390eb	0.043839376
205	0xbd4dde92	-0.050261088
206	0x3cc729d7	0.024311943
207	0x3b4f32f9	0.0031616075
208	0x3b3d83f2	0.0028917757
209	0xbb00b725	-0.0019640413
210	0x3c919456	0.017770927
211	0xbce4d8d3	-0.027935421
212	0xbc27f4d9	-0.010251247
213	0x3d6a20e3	0.05716027
214	0x3d1b2264	0.037874594
215	0xbba97d1d	-0.0051723854
216	0xbd585a81	-0.052820686
217	0x3bb1ea15	0.005429516
218	0xbd1d26d7	-0.03836712
219	0x3d5de4c4	0.054173246
220	0xbcf20439	-0.02954303
221	0x3ae2051e	0.0017243957
222	0xbc163033	-0.009166765
223	0x3c628d3c	0.013827618
224	0x3d7030ac	0.058640167
225	0x3c745287	0.014912254
226	0x3d314704	0.043280616
227	0x3d5ffc68	0.054684073
228	0x3d65b59d	0.056081403
229	0xbc3e0bb9	-0.011599475
230	0xbba4fbe3	-0.00503491
231	0x3d0b6649	0.034033094
232	0xbc2e5663	-0.010640713
233	0x3d05171e	0.03249275
234	0xbc6b9f75	-0.014381279
235	0xbd297af8	-0.041377038
236	0x3cb76623	0.02238757
237	0x3c7d3682	0.01545489
238	0x3d041ab4	0.03225203
239	0x3d83eeb5	0.06442014
240	0x3d2fc967	0.04291668
241	0x3d6f7904	0.05846502
242	0x3bbb89b5	0.005723203
243	0xbd546cf2	-0.05186171
244	0xbd2e53ab	-0.04256026
245	0xbd1b6700	-0.037940025
246	0xbd3f872f	-0.04675978
247	0xbcc5d6b3	-0.024150228
248	0xbd4a6e08	-0.04942134
249	0xbd4d42e9	-0.05011264
250	0xbcff35c4	-0.031153567
251	0xbd5c08e9	-0.053719435
252	0xbd2a506e	-0.04158061
253	0x3c932d57	0.017965956
254	0x3d358585	0.044316787
255	0xbc54f57c	-0.012997981

conv_block2.0.bias f4 [64]
0	0xbcf48a32	-0.029851053
1	0xbc98a59d	-0.018633658
2	0x3b6c9dba	0.0036104755
3	0x3adafe59	0.0016707882
4	0xbd616ad1	-0.05503351
5	0x3d11e5fa	0.035619713
6	0xbda15b3c	-0.0787873
7	0xbcec339f	-0.028833209
8	0xbb10255d	-0.0021994927
9	0xbc297dad	-0.010344905
10	0x3dd4dd25	0.103937425
11	0x3d5b8d95	0.05360182
12	0x3cd1aef3	0.025596118
13	0xbb276945	-0.0025544923
14	0xbd7fb2c3	-0.06242634
15	0x3cce29ed	0.025166476
16	0x3d87baf3	0.066274546
17	0xbc536c11	-0.012904183
18	0xbd363079	-0.04447982
19	0xbdad2be5	-0.08455638
20	0xbd104d3b	-0.035229903
21	0x3bf21600	0.0073878765
22	0xbd6662d9	-0.056246612
23	0xbd9502a2	-0.07275893
24	0xbcf48941	-0.029850604
25	0x3c169066	0.009189701
26	0xbcd52d03	-0.02602244
27	0xbd9e4e43	-0.07729771
28	0x3da20de4	0.07912806
29	0xbc9d756f	-0.019221036
30	0x3d76cc07	0.06025317
31	0x3cb0de64	0.02159042
32	0xbd359c1e	-0.044338338
33	0x3bef0697	0.0072944867
34	0xbd8e27e0	-0.06941199
35	0xbd9074c7	-0.070535235
36	0x3d0807db	0.033210617
37	0xbd5cf66c	-0.053945944
38	0xbc80d32b	-0.015725693
39	0x3d29a6bb	0.041418772
40	0x3cb29d13	0.021803414
41	0xbca9b672	-0.02071688
42	0x3ce668ed	0.028126204
43	0xbd71e4c3	-0.059056055
44	0xbdc49f90	-0.09600747
45	0x3d40df56	0.04708799
46	0x3da0027d	0.078129746
47	0x3c91f402	0.017816547
48	0x3c3e494f	0.011614158
49	0x3b8dd529	0.004328389
50	0x3d0ad099	0.03389034
51	0x3d1befc7	0.038070466
52	0x3c1e1201	0.009647847
53	0x3ca874c5	0.020563493
54	0xbcaa4fa9	-0.020789938
55	0x3cb9aacc	0.02266445
56	0x3db0a6d9	0.08625574
57	0xbd8ddbd7	-0.06926697
58	0xbcfe7fd5	-0.031066814
59	0x3d39580a	0.045249976
60	0xbd2ea636	-0.04263898
61	0xbdaae81d	-0.08345053
62	0xba026e6e	-0.0004975562
63	0x3d7a9311	0.06117541

conv_block2.1.weight f4 [64]
0	0x3f80d0a7	1.0063676
1	0x3f7fd78f	0.9993829
2	0x3f7e7ef2	0.99412453
3	0x3f80bed6	1.0058239
4	0x3f7e462a	0.9932581
5	0x3f81918f	1.0122546
6	0x3f7e85ef	0.99423116
7	0x3f7f46c1	0.99717337
8	0x3f81414e	1.0098054
9	0x3f7ee950	0.99574757
10	0x3f80dc2f	1.0067195
11	0x3f81370a	1.0094922
12	0x3f7efddd	0.99606115
13	0x3f80c620	1.0060463
14	0x3f7ea145	0.9946483
15	0x3f80a6a4	1.0050855
16	0x3f80b537	1.0055302
17	0x3f80d287	1.0064248
18	0x3f80275c	1.0012012
19	0x3f7e3972	0.99306405
20	0x3f7e5624	0.9935019
21	0x3f811c95	1.0086848
22	0x3f7f04a4	0.99616456
23	0x3f7eaf60	0.9948635
24	0x3f7e2b10	0.9928446
25	0x3f7e7627	0.99399036
26	0x3f7ea8fb	0.99476594
27	0x3f7f965c	0.99838805
28	0x3f801aeb	1.0008215
29	0x3f7eaa7f	0.99478906
30	0x3f80917f	1.0044402
31	0x3f80aca2	1.0052683
32	0x3f7e84a0	0.9942112
33	0x3f80b433	1.0054992
34	0x3f7e2f0d	0.99290544
35	0x3f7efb2b	0.99602
36	0x3f7f72d0	0.99784565
37	0x3f7e8be4	0.99432206
38	0x3f815114	1.0102868
39	0x3f80a5d5	1.0050608
40	0x3f80d581	1.0065156
41	0x3f80a68c	1.0050826
42	0x3f7e84bb	0.9942128
43	0x3f80cc51	1.0062352
44	0x3f7f263a	0.99667704
45	0x3f8090f1	1.0044233
46	0x3f80a90c	1.0051589
47	0x3f810312	1.0079062
48	0x3f805488	1.0025797
49	0x3f8074b4	1.0035615
50	0x3f814aef	1.0100993
51	0x3f80bcbf	1.0057601
52	0x3f8087e9	1.0041476
53	0x3f7e659e	0.99373806
54	0x3f80f4c9	1.0074703
55	0x3f7e86fd	0.99424726
56	0x3f8150fd	1.0102841
57	0x3f7e5f55	0.99364215
58	0x3f7ebaea	0.9950396
59	0x3f80ae28	1.0053148
60	0x3f7f1d56	0.9965414
61	0x3f7ee454	0.9956715
62	0x3f8020bc	1.000999
63	0x3f807c26	1.0037887

conv_block2.1.bias f4 [64]
0	0x3b56111f	0.0032664014
1	0x392f71db	0.00016731715
2	0xbc0f3c92	-0.008742468
3	0x3bdc9727	0.006731886
4	0xbbbf6ddb	-0.005841953
5	0x3c205bf1	0.009787546
6	0xbbd306e0	-0.0064400285
7	0xbbaf208a	-0.005344455
8	0x3bf6b37b	0.00752872
9	0xbbb26027	-0.005443591
10	0x3b8847ab	0.004158934
11	0x3beaf0b0	0.0071698055
12	0xbba46e73	-0.0050180494
13	0x3b835348	0.0040077306
14	0xbba319af	-0.004977427
15	0x3b2d3dbd	0.0026434504
16	0x3bbb7e91	0.005721875
17	0x3b3661fe	0.0027829404
18	0x3b1d1e7b	0.0023974467
19	0xbc1ea127	-0.009681976
20	0xbbf2cc63	-0.0074096187
21	0x3bd9c9f4	0.006646389
22	0xbb7b930e	-0.0038387212
23	0xbb8b4bd2	-0.004250982
24	0xbc036eff	-0.008022069
25	0xbbc1eb5d	-0.00591795
26	0xbba88f6d	-0.005144051
27	0xbb569525	-0.0032742706
28	0x38d3c001	0.000100970276
29	0xbbc15f3f	-0.005901247
30	0x3ba35b17	0.004985224
31	0x3b860b84	0.0040907282
32	0xbbba0fea	-0.0056781666
33	0x3b67e1b4	0.0035382332
34	0xbbd90fcd	-0.006624198
35	0xbb667434	-0.0035164477
36	0xbaa74e4f	-0.0012764427
37	0xbc12bf81	-0.008956791
38	0x3bdca214	0.0067331884
39	0x3b888e3b	0.004167346
40	0x3bd0b94b	0.006369745
41	0x3b2cfa40	0.0026394278
42	0xbbae2587	-0.005314532
43	0x3bbe77d4	0.0058126245
44	0xbb42ee80	-0.0029744208
45	0x3b8a8bfc	0.004228113
46	0x3a96c459	0.0011502608
47	0x3c133237	0.00898414
48	0xb9802987	-0.00024445003
49	0x3a9e1c8d	0.0012062952
50	0x3bf36f4b	0.0074290386
51	0x3b5d8a92	0.0033804518
52	0x3b5579e5	0.0032573876
53	0xbbc2e279	-0.005947408
54	0x3bf902ff	0.007599234
55	0xbbc190b5	-0.005907143
56	0x3bd93280	0.0066283345
57	0xbbc02882	-0.005864204
58	0xbb791eee	-0.003801282
59	0x3bb8a728	0.005635161
60	0xbbc4d8f7	-0.0060073095
61	0xbba5321e	-0.005041375
62	0xba0c70d8	-0.0005357391
63	0x3b8e0420	0.004333988

conv_block2.1.running_mean f4 [64]
0	0x3d1e58c6	0.03865888
1	0x3e39fa40	0.18161869
2	0x3e89bdce	0.26902622
3	0xbc422183	-0.01184881
4	0x3e8ffe21	0.28123572
5	0x39927383	0.00027933353
6	0xbe05af83	-0.13055234
7	0x3d9d040d	0.07666788
8	0x3e0db883	0.13839917
9	0xbdbc21a3	-0.09186103
10	0x3d5396fb	0.051657658
11	0xbe236603	-0.15956883
12	0x3f3e0ded	0.7424
13	0x3d85ca66	0.06532745
14	0xbf8e1f94	-1.1103387
15	0x3e89ae7e	0.2689094
16	0x3f05b944	0.5223582
17	0x3db74aff	0.08949851
18	0x3e2b7275	0.1674288
19	0x3e3480ab	0.17627208
20	0xbe8a1a48	-0.26973176
21	0x3e30a13a	0.17249003
22	0x3e81b3a0	0.25332355
23	0xbede17ab	-0.43377432
24	0x3f0d6b91	0.5524226
25	0xbf614cf8	-0.8800807
26	0xbe1741cb	-0.14771192
27	0x3e6c1af3	0.23057155
28	0xbda68936	-0.0813164
29	0x3ea03607	0.3129122
30	0x3f08a0c7	0.53370327
31	0xbd9dd43b	-0.077064954
32	0x3e8ea311	0.27858785
33	0x3da81ef8	0.08209032
34	0xbf855de0	-1.0419273
35	0xbf0ddbf6	-0.5541376
36	0x3ce24d90	0.027624875
37	0x3da6a9e6	0.08137874
38	0xbe8c84b0	-0.27444983
39	0xbe0646ed	-0.13112994
40	0x39620829	0.0002155608
41	0x3c8da2ed	0.017289603
42	0x3e0a9e5d	0.13536973
43	0xbe5d98df	-0.21640347
44	0xbef79c2a	-0.4836133
45	0xbe47c991	-0.19510485
46	0x3cc0f968	0.023556426
47	0x3e99aaff	0.30013272
48	0x3dfda410	0.12384808
49	0x3d9c56cb	0.07633742
50	0x3d9d5d4d	0.07683811
51	0x3cc2643b	0.023729434
52	0x3e8dacc9	0.27670887
53	0xbf27f7f5	-0.6561273
54	0x3eda64bf	0.42654988
55	0x3e33e877	0.17569147
56	0xbd24719a	-0.0401474
57	0xbe51bcda	-0.20482197
58	0x3eba1901	0.363472
59	0xbe8452f5	-0.2584454
60	0x3d70139c	0.05861245
61	0x3e2755af	0.1634128
62	0xbe021832	-0.12704542
63	0xbd64ffbc	-0.05590795

conv_block2.1.running_var f4 [64]
0	0x3d8a08a8	0.06739932
1	0x3e3d2edc	0.18474907
2	0x3e250d0f	0.16118263
3	0x3d993daf	0.07482468
4	0x3e06126d	0.13092966
5	0x3d95f719	0.07322521
6	0x3d54a252	0.051912613
7	0x3e03eee4	0.12884098
8	0x3d961245	0.073277034
9	0x3e22b11f	0.15887879
10	0x3d832559	0.06403608
11	0x3ddc9d64	0.107722074
12	0x3e321002	0.17388919
13	0x3d7384a0	0.059452653
14	0x3fb7005c	1.4296985
15	0x3d9913ba	0.07474466
16	0x3f8176e3	1.0114406
17	0x3e0fc22e	0.14038917
18	0x3e24b63f	0.16085146
19	0x3da31860	0.079636335
20	0x3e34890a	0.17630401
21	0x3d81103c	0.063019246
22	0x3e2835d5	0.16426785
23	0x3dbe56eb	0.09293922
24	0x3eb04823	0.34430036
25	0x3e891ac8	0.26778245
26	0x3e3748c3	0.1789885
27	0x3e97ab52	0.29622895
28	0x3d940828	0.07228118
29	0x3e71ddc6	0.23619756
30	0x3e076d40	0.1322527
31	0x3d955d14	0.07293144
32	0x3e922683	0.28545007
33	0x3d62cbaf	0.05537003
34	0x3fefa980	1.8723602
35	0x3e93e137	0.28882763
36	0x3e6496a0	0.22323084
37	0x3e2a0a7f	0.16605566
38	0x3e43f663	0.19136958
39	0x3cff914e	0.031197216
40	0x3d335272	0.043779798
41	0x3dba83a8	0.09107143
42	0x3e3ce0e7	0.18445168
43	0x3d79144f	0.060810383
44	0x3e973572	0.29532963
45	0x3db939b7	0.09044211
46	0x3d9ec728	0.0775283
47	0x3e08a08a	0.13342491
48	0x3dcea1ab	0.100894295
49	0x3d47b9ec	0.048761293
50	0x3d79d7d2	0.060996838
51	0x3da46334	0.08026734
52	0x3e1b8e10	0.15190911
53	0x3f5956d9	0.84898144
54	0x3e3bfcbf	0.18358134
55	0x3e31be43	0.17357735
56	0x3d8de3c4	0.069282085
57	0x3e25cb9a	0.16190949
58	0x3e4c3f64	0.19946057
59	0x3deb0229	0.114750214
60	0x3e39aa74	0.18131429
61	0x3e27b268	0.1637665
62	0x3d7622b5	0.060091693
63	0x3d94411d	0.07238982

head.2.weight f4 [64]
0	0x3f7fa260	0.9985714
1	0x3f7ebbfc	0.9950559
2	0x3f807ac1	1.0037462
3	0x3f7f3179	0.99684864
4	0x3f7fa2be	0.998577
5	0x3f7fe1ef	0.9995412
6	0x3f80707c	1.0034328
7	0x3f805a2e	1.0027521
8	0x3f812af8	1.0091238
9	0x3f8025fa	1.001159
10	0x3f803df9	1.0018913
11	0x3f80cfd8	1.0063429
12	0x3f7f992f	0.99843115
13	0x3f809ebc	1.0048442
14	0x3f7f4120	0.9970875
15	0x3f7fe10f	0.9995279
16	0x3f7f2152	0.9966022
17	0x3f803c7b	1.0018457
18	0x3f7f952c	0.99836993
19	0x3f801d60	1.0008965
20	0x3f80890f	1.0041827
21	0x3f805edc	1.0028949
22	0x3f7f5706	0.9974216
23	0x3f7f2c90	0.9967737
24	0x3f7f62ca	0.99760115
25	0x3f7f5373	0.9973671
26	0x3f7fc506	0.9991001
27	0x3f80889c	1.004169
28	0x3f7f7623	0.9978964
29	0x3f7f4d7b	0.997276
30	0x3f804836	1.0022037
31	0x3f80cd26	1.0062606
32	0x3f7f7c48	0.99799013
33	0x3f80a1f5	1.0049425
34	0x3f7f87ec	0.99816775
35	0x3f7fa26e	0.99857223
36	0x3f7f0ce7	0.9962906
37	0x3f80aeb8	1.005332
38	0x3f7fc5c8	0.99911165
39	0x3f7f376a	0.9969393
40	0x3f80034e	1.0001009
41	0x3f7fd9d1	0.99941736
42	0x3f7f2a97	0.9967436
43	0x3f7db681	0.99106604
44	0x3f7f8471	0.99811465
45	0x3f7f50da	0.99732745
46	0x3f809620	1.0045815
47	0x3f7f6cf4	0.99775624
48	0x3f8018c3	1.0007557
49	0x3f7ffc52	0.99994385
50	0x3f81309f	1.0092963
51	0x3f800d9f	1.0004157
52	0x3f7f379c	0.9969423
53	0x3f7f31c6	0.99685323
54	0x3f7fb363	0.998831
55	0x3f7f9fdb	0.99853295
56	0x3f8052c0	1.0025253
57	0x3f7f8f93	0.9982845
58	0x3f7e3f75	0.9931558
59	0x3f7f7d36	0.9980043
60	0x3f806f50	1.003397
61	0x3f803aec	1.0017982
62	0x3f80935b	1.0044969
63	0x3f7f462b	0.9971644

head.2.bias f4 [64]
0	0x3bbad7da	0.005702001
1	0xbb5dd874	-0.003385094
2	0xbc196212	-0.009361761
3	0x3bd809c1	0.0065929596
4	0xbc12f314	-0.008969087
5	0x3bd4f0d8	0.0064984374
6	0xbc2753e9	-0.010212877
7	0xbc0c8558	-0.0085767135
8	0x3c2c5f10	0.010520712
9	0xbc0c69af	-0.008570119
10	0x3bdbdad5	0.0067094364
11	0x3c2544a9	0.010087171
12	0xbb9c4d32	-0.0047699446
13	0x3bfa33ca	0.0076355683
14	0xbbe31b55	-0.0069307485
15	0x3be73414	0.0070557687
16	0x3bfa30ed	0.007635227
17	0x3bf654b6	0.0075174225
18	0xbb06ce49	-0.0020569733
19	0xbc2284df	-0.009919374
20	0xbc26af2b	-0.010173599
21	0x3c15d2b3	0.009144473
22	0xbbf16804	-0.007367136
23	0xbbb17513	-0.0054155677
24	0xbc08a02d	-0.00833897
25	0xbc048a8e	-0.008089675
26	0xbc38c792	-0.01127805
27	0xbc031f2c	-0.008003037
28	0xbb429732	-0.002969217
29	0xbbe722e6	-0.0070537208
30	0x3bd81192	0.0065938914
31	0x3bdabad9	0.006675106
32	0xbbffe53c	-0.0078093093
33	0x3bc0fb1f	0.005889311
34	0xbc0ed045	-0.0087166475
35	0xbbfcbd9a	-0.007713032
36	0xbb559b88	-0.0032593925
37	0xbc25e61a	-0.010125661
38	0x3c330dd9	0.0109285945
39	0x3bf7a7bc	0.0075578373
40	0x3c07baa7	0.0082842475
41	0x3b91afb3	0.004445994
42	0xbbfb9b04	-0.0076783914
43	0x3ba9190b	0.005160456
44	0xbbd3a9f5	-0.0064594694
45	0x3bcdc2e7	0.0062793377
46	0xbb1b2318	-0.002367204
47	0x3c1de19e	0.009636311
48	0xbb943941	-0.0045234268
49	0x3bca0603	0.0061652674
50	0x3c4bf4e5	0.012448524
51	0x3bdecb7b	0.006799159
52	0x3be66c85	0.0070319795
53	0xbc065741	-0.008199514
54	0x3c171bd4	0.009222943
55	0xbbff9346	-0.007799539
56	0x3c2039ee	0.0097794365
57	0xbc067d52	-0.00820859
58	0xbbbf38c1	-0.005835623
59	0x3c088c1c	0.008334186
60	0xbbf08fd6	-0.0073413653
61	0xbbf4c547	-0.0074698064
62	0xbab17c22	-0.0013541023
63	0x3bc470e6	0.005994904

head.4.weight f4 [384, 64]
0	0x3dc7a444	0.09748128
1	0x3d74a4a5	0.05972733
2	0xbdaac2f8	-0.083379686
3	0xbd8b5791	-0.06803811
4	0xbd595c74	-0.053066686
5	0x3d02a848	0.031898767
6	0x3d919077	0.071076326
7	0xbac3eba2	-0.0014947543
8	0xbe052c25	-0.13005121
9	0xbd9ca28c	-0.07648191
10	0xbd831716	-0.06400888
11	0xbdb7f613	-0.08982482
12	0x3d8161b5	0.06317464
13	0x3a3800cb	0.0007019161
14	0xbdbc7dae	-0.09203659
15	0xbd9eaf0d	-0.07748232
16	0xbdb594ed	-0.08866296
17	0xbdb6f8cf	-0.08934175
18	0x3d510e59	0.051039074
19	0xbd83859c	-0.06421968
20	0xbdd2d8b4	-0.10295239
21	0x3bd0b303	0.006368996
22	0xbbd917ac	-0.0066251364
23	0xbdd9bf2e	-0.10632168
24	0x3d0dac3e	0.03458809
25	0x3c1d2470	0.009591207
26	0x3c94705e	0.018119987
27	0x3d75f3e4	0.060047045
28	0xbd8acb77	-0.06777089
29	0xbde12d23	-0.10994937
30	0x3d9f6a63	0.077839635
31	0x3ddd8d28	0.10817939
32	0x3dec6064	0.115418226
33	0x3d80adb8	0.06283134
34	0x3de8524c	0.11343822
35	0x3d0f50fe	0.03498935
36	0xbde41d7f	-0.111384384
37	0x3d2c7981	0.042108063
38	0xbdc372a5	-0.09543351
39	0xbdf46321	-0.1193297
40	0x3d44147e	0.047871105
41	0xbd89e90c	-0.06733903
42	0xbdbabd02	-0.09118082
43	0x3df299c1	0.118457325
44	0x3d2094aa	0.039204277
45	0x3d69c2c6	0.057070516
46	0xbd2d248c	-0.042271182
47	0x3d47cca8	0.04877916
48	0x3a88be83	0.0010432753
49	0xbcf3d6a4	-0.029765435
50	0xbcfd29eb	-0.030903777
51	0x3dbcf47a	0.09226318
52	0xbdab896d	-0.08375821
53	0xbd287019	-0.04112253
54	0x3dbbae4d	0.091641046
55	0xbbe1b709	-0.0068882746
56	0x3d721510	0.059102118
57	0xbd5d4a16	-0.054025732
58	0x3da93ede	0.08263944
59	0xbdb29f2e	-0.08721767
60	0xbd82341b	-0.063575946
61	0xbddc4fe0	-0.107574224
62	0xbdc25e8d	-0.094906904
63	0x3da4ab69	0.080405064
64	0x3da0553b	0.078287564
65	0x3d89df20	0.06732011
66	0x3d8615c6	0.06547122
67	0x3da8c89b	0.082413875
68	0x3d9b378c	0.07578954
69	0x3d90e794	0.0707542
70	0xbd6beebe	-0.05760073
71	0x3dc8bdee	0.09801851
72	0x3d9b7541	0.07590724
73	0x3d297168	0.04136792
74	0xbcdb3da9	-0.0267628
75	0x3dd410e1	0.10354782
76	0xbc1bc99a	-0.009508515
77	0xbdf88576	-0.12134831
78	0xbd4bf603	-0.049795162
79	0xbb9cbd88	-0.004783336
80	0x3d7e0484	0.062016025
81	0x3cfd6377	0.030931218
82	0x3cd443e8	0.025911286
83	0x3ddcb8da	0.10777445
84	0x3dafcc1b	0.08583852
85	0xbd9705ec	-0.073741764
86	0xbd3642c0	-0.04449725
87	0xbc6f4838	-0.014604621
88	0xbbcd10e8	-0.006258119
89	0xbdc552ef	-0.09634959
90	0xbd01c7e7	-0.031684782
91	0x3dcc7008	0.09982306
92	0xbe00ef65	-0.12591322
93	0x3c8d2fa0	0.017234623
94	0x3cb63c25	0.022245476
95	0xbd38d355	-0.045123417
96	0xbd311a92	-0.04323823
97	0xbd884666	-0.066540524
98	0xbdeb8c2f	-0.11501347
99	0xbde73883	-0.11290076
100	0x3d8309f6	0.06398384
101	0x3a96037e	0.0011445133
102	0xbbafc491	-0.0053640087
103	0xbcb49be3	-0.022046989
104	0xbdf321a0	-0.11871648
105	0xbcb02c27	-0.021505428
106	0xbdedef83	-0.11617949
107	0x3d7da53c	0.061925158
108	0xbd35d7f4	-0.044395402
109	0xbd1f3c2c	-0.038875744
110	0x3d1ff368	0.03905049
111	0xbdab3944	-0.08360532
112	0xbda073f7	-0.078346185
113	0xbd8f2820	-0.06990075
114	0xbd108ce0	-0.0352906
115	0xbda29cd1	-0.079400666
116	0xbdfb4a02	-0.12269975
117	0x3d5a5fc9	0.053314004
118	0x3d8c2900	0.06843758
119	0xbd5816ab	-0.052755993
120	0xbdc9a607	-0.0984612
121	0x3dab583b	0.08366438
122	0xbd9dcd83	-0.07705214
123	0xbdc3388f	-0.09532272
124	0xbddfe479	-0.109322496
125	0x3d086d7f	0.03330755
126	0x3d08e7d7	0.033424225
127	0x3df70939	0.12062306
128	0xbd3eadee	-0.04655259
129	0xbda0c2e9	-0.07849676
130	0x3df2ab1f	0.11849045
131	0x3db48a4d	0.08815441
132	0xbde1df90	-0.11028969
133	0xbdea2af4	-0.11433974
134	0x3d2f738f	0.042834815
135	0xbd886d3d	-0.066614605
136	0x3ceb52c1	0.028725984
137	0xbc32e8cf	-0.010919764
138	0xbd0de19c	-0.034638986
139	0x3de5f4ae	0.112283096
140	0x3d2c90b4	0.042130187
141	0x3d2e09bf	0.042489763
142	0xbdba43b0	-0.090949416
143	0xbd2cdb6b	-0.04220144
144	0x3d64645b	0.05575977
145	0x3d92588b	0.071457945
146	0x3c15a101	0.009132625
147	0xbdfdb803	-0.12388613
148	0xbd9213cd	-0.07132683
149	0x3e00cf80	0.12579155
150	0x3dce07b6	0.100600645
151	0x3d8c2aa8	0.068440735
152	0xbd97619f	-0.073916666
153	0xbd87e8d0	-0.06636202
154	0x3d31e7dc	0.04343401
155	0xbde0d8b2	-0.10978831
156	0xbc22bdd5	-0.009932955
157	0x3d46d57e	0.048543446
158	0x3d55b5fa	0.0521755
159	0x3d886cf4	0.06661406
160	0x3c049940	0.008093178
161	0x3db3a956	0.08772533
162	0xbdf744ac	-0.12073645
163	0xbd837087	-0.06417947
164	0xbd144c2f	-0.036205467
165	0x3d8ba1e7	0.0681799
166	0xbdc83672	-0.097760096
167	0x3dc013c0	0.09378767
168	0xbd934563	-0.07190969
169	0xbd15cbf1	-0.036571447
170	0x3dbf2c87	0.09334665
171	0x3df9a92b	0.12190469
172	0x3d1c34c2	0.03813625
173	0xbcf8a8ac	-0.030353867
174	0x3dbf48e0	0.09340072
175	0xbc0535c6	-0.008130496
176	0x3d941026	0.072296426
177	0x3d51d204	0.051225677
178	0x3b8cd2ce	0.004297591
179	0x3df2a8fa	0.11848636
180	0x3d6fe439	0.05856726
181	0x3df5c9f3	0.120014094
182	0x3df0f4f7	0.11765473
183	0x3ccebd66	0.025236797
184	0xbd666e87	-0.05625775
185	0xbd27b86b	-0.04094736
186	0xbc9906bb	-0.018679967
187	0xbd2d910f	-0.042374667
188	0x3c1cf2e8	0.009579398
189	0x3df3fa89	0.1191302
190	0x3d9e9692	0.07743563
191	0x3d054041	0.03253198
192	0x3d7fce2f	0.06245249
193	0xbd8ff028	-0.07028228
194	0x3d5c0bc9	0.053722177
195	0x3ddad930	0.106859565
196	0x3d25a4b5	0.04044028
197	0xbaa4a86d	-0.0012562402
198	0x3dd7077f	0.10499477
199	0xbdc9cf2e	-0.098539695
200	0x3d81b4da	0.06333323
201	0xbcb0877d	-0.02154898
202	0xbdf42a97	-0.11922186
203	0x3d833aa3	0.064076684
204	0xbcd866bb	-0.026416173
205	0xbd05a81c	-0.032631025
206	0xbd74f55e	-0.059804313
207	0xbd2e93a0	-0.042621255
208	0xbc8a7c70	-0.01690504
209	0xbe0052c8	-0.12531579
210	0x3d860161	0.06543232
211	0x3c8e54c8	0.017374411
212	0x3d4f5eea	0.050627626
213	0x3df93dde	0.12170003
214	0xbcdf0472	-0.0272238
215	0xbd9f60d6	-0.07782142
216	0xbda4b35d	-0.08042023
217	0xbc9482ff	-0.01812887
218	0xbcb5ddbd	-0.02220046
219	0x3d4a8ab0	0.04944867
220	0x3b80b049	0.003927265
221	0x3d25e92d	0.040505577
222	0xbd88ebfb	-0.06685635
223	0xbde6764a	-0.112530306
224	0x3b718ad1	0.0036856423
225	0x3cb6623c	0.022263639
226	0xbd7a1aa8	-0.061060578
227	0xbd36a15b	-0.044587474
228	0xbccaa9dc	-0.024739198
229	0xbddad867	-0.10685807
230	0x3dee9713	0.11649909
231	0x3db60ee7	0.08889561
232	0xbdbc164e	-0.09183942
233	0xbdf65f0c	-0.120298475
234	0x3ddc1079	0.107453294
235	0x3dd487af	0.10377442
236	0xbde67458	-0.112526596
237	0x3cf73c36	0.030180078
238	0xbdacca70	-0.084370494
239	0xbdb7d319	-0.089758106
240	0xbdac0546	-0.08399443
241	0x3b5c6f93	0.003363584
242	0x3dddd918	0.10832423
243	0x3d6c6af5	0.05771919
244	0xbde7f9d0	-0.11326945
245	0x3d853584	0.06504348
246	0x3de9643d	0.11396072
247	0x3db17ece	0.08666764
248	0x3de73449	0.112892695
249	0xbd964063	-0.073364995
250	0xbd842bb2	-0.06453647
251	0x3d90cd2d	0.07070384
252	0xbdc295a0	-0.09501195
253	0xbd084200	-0.033266068
254	0x3dc3099e	0.09523319
255	0x3d22ed5b	0.03977714

head.4.bias f4 [384]
0	0xbcde49ed	-0.02713486
1	0xbc90167f	-0.017588852
2	0xbc964584	-0.018343695
3	0xbd5505cf	-0.052007493
4	0x3d7560db	0.05990682
5	0x3d806338	0.062689245
6	0xbcb6b0ce	-0.022301104
7	0x3d82b0ea	0.063814
8	0x3d856cb3	0.06514873
9	0xbbf16a7c	-0.0073674303
10	0xbc49399c	-0.012281802
11	0x3db08338	0.08618778
12	0x3b8bf6a4	0.004271345
13	0x3dd980d5	0.10620276
14	0x3de14123	0.10998752
15	0xbe060f03	-0.13091664
16	0xbd0b5992	-0.034020968
17	0xbddfe9e5	-0.10933284
18	0x3c2ab763	0.010419699
19	0x3ddcda45	0.10783819
20	0x3d842176	0.06451695
21	0xbcd2eb58	-0.025746986
22	0x3cf7f067	0.030266
23	0x3da11eee	0.078672275
24	0xbd950087	-0.07275491
25	0x3d09d1f8	0.033647507
26	0xbbc8ec52	-0.006131687
27	0x3ccf9597	0.025339885
28	0xbd16a261	-0.03677595
29	0x3da546e1	0.0807016
30	0x3d8799c5	0.06621126
31	0xbc0d46f7	-0.008622876
32	0x3c2f20af	0.010688945
33	0xbdee1724	-0.116255075
34	0xbde316b9	-0.110883184
35	0xbd4113d1	-0.04713804
36	0xbdaa1df8	-0.08306497
37	0x3a7425d6	0.00093134993
38	0x3dcda13d	0.100405194
39	0x3c24ff00	0.010070562
40	0xbd9493ca	-0.07254751
41	0xbcc3e015	-0.023910562
42	0xbd8b6ccd	-0.068078615
43	0xbd9d351e	-0.07676147
44	0xbda9f2fa	-0.08298297
45	0x3d94ea85	0.072712936
46	0xbd898277	-0.06714337
47	0xbd5f89b5	-0.054574687
48	0xbc96a125	-0.018387387
49	0x3cac8b87	0.021062626
50	0x3dd119a1	0.102099665
51	0x3c5af65b	0.0133644
52	0x3da5141a	0.08060475
53	0xbdc7019e	-0.09717105
54	0x3d878078	0.066163
55	0xbe016008	-0.1263429
56	0xbd00fbf8	-0.031490296
57	0xbdc73ee0	-0.09728789
58	0x3bfdf4c0	0.0077501237
59	0x3dce0b47	0.10060745
60	0xbdd80f8d	-0.10549841
61	0xbd599c51	-0.05312759
62	0x3dd050f8	0.101716936
63	0xbdcb1017	-0.09915178
64	0xbdce30dd	-0.10067914
65	0xbbdf5e30	-0.006816648
66	0x3d280b8f	0.041026648
67	0x3d6fb66d	0.058523584
68	0x3d0ad123	0.033890855
69	0xbdcf8459	-0.10132665
70	0xbd40ca2a	-0.0470678
71	0x3da10ca9	0.07863743
72	0x3dfc57c1	0.12321425
73	0x3cc32ac9	0.023824112
74	0xbda417ac	-0.080123276
75	0x3d83de95	0.064389385
76	0xbdda247b	-0.10651489
77	0xbd895018	-0.0670473
78	0x3d4aa189	0.04947046
79	0x3dbe9ab8	0.09306854
80	0x3d9bca80	0.07606983
81	0x3df5b382	0.11997129
82	0xbd34857b	-0.04407261
83	0xbd9b06ec	-0.075696796
84	0x3d98c1da	0.07458849
85	0x3dab2659	0.083569236
86	0x3da729bd	0.08162258
87	0xbe07eda2	-0.13274243
88	0x3e0255db	0.12728064
89	0x3d230573	0.03980012
90	0x3dc53906	0.09630017
91	0x3dbb9b61	0.091604955
92	0xbd160b15	-0.036631662
93	0x3df6e8ae	0.12056099
94	0xbd532026	-0.05154433
95	0xbd317f93	-0.043334555
96	0x3dd1696d	0.102251865
97	0x3d2a9969	0.04165021
98	0x3dec3371	0.11533249
99	0x3d1c22b5	0.038119037
100	0x3d1b049c	0.037846193
101	0x3ddced25	0.10787419
102	0x3db50c7d	0.088402726
103	0x3d8ffe10	0.070308805
104	0xbba84c8a	-0.0051360773
105	0xbd1462ba	-0.036226965
106	0x3d829430	0.06375921
107	0xbe057d3e	-0.13036057
108	0xbcacbb76	-0.021085482
109	0x3dc31db8	0.09527153
110	0xbd9881c1	-0.074466236
111	0x3ca478d7	0.020077152
112	0xbd58b572	-0.052907415
113	0x3dd26bf7	0.10274499
114	0xbdb9f8a3	-0.09080627
115	0x3d3121c2	0.043245085
116	0xbd8e59c8	-0.06950718
117	0xbdc1a933	-0.094561
118	0xbd914556	-0.07093303
119	0xbde8fb1b	-0.113760196
120	0x3dc339a9	0.09532482
121	0x3da30c04	0.07961276
122	0x3d534635	0.051580627
123	0xbd6a31b5	-0.05717631
124	0xbd9ec519	-0.07752437
125	0x3be00c2b	0.006837388
126	0xbc7313c8	-0.014836259
127	0xbd84cda7	-0.064845376
128	0x3cb68714	0.022281207
129	0xbd5afc9a	-0.053463556
130	0xbd40092c	-0.046883747
131	0xbdf9116b	-0.12161525
132	0x3d7ba66a	0.061438
133	0xbda83648	-0.08213478
134	0x3df4eafc	0.11958882
135	0xbc4cc3b6	-0.012497833
136	0x3c973d5f	0.018461881
137	0xbdd91d46	-0.106012866
138	0xbc649ac8	-0.013952918
139	0x3d51e850	0.05124694
140	0xbcd20831	-0.025638672
141	0xbdd9561a	-0.10612126
142	0xbd0bc174	-0.03412004
143	0xbd675c8c	-0.056484744
144	0x3c24425d	0.010025588
145	0xbd8d45a7	-0.06898051
146	0x3c1d97db	0.009618725
147	0xbd891fef	-0.06695544
148	0xbd146cb8	-0.036236495
149	0x3d127025	0.03575148
150	0xbd686c08	-0.05674365
151	0x3cecc7a6	0.028903794
152	0xbdb379e1	-0.08763481
153	0xbcf3fcf8	-0.02978371
154	0x3dee6b58	0.11641568
155	0xbd8bae35	-0.06820337
156	0xbdb92c1e	-0.09041618
157	0xbd78fa95	-0.06078585
158	0xbd61e53a	-0.055150248
159	0xbcf8cc47	-0.030370845
160	0x3db37bfa	0.08763881
161	0xbcd105c8	-0.025515452
162	0x3dbc5a14	0.091968685
163	0x3dc1de4c	0.09466228
164	0x3d745539	0.059651587
165	0x3d915b27	0.07097464
166	0x3d4f1b1e	0.05056297
167	0xbde688cb	-0.1125656
168	0x3dae4edb	0.08511134
169	0xbd2e61aa	-0.04257361
170	0xbdf12d9a	-0.11776276
171	0x3ddc5090	0.107575536
172	0xbdd6e08e	-0.10492049
173	0x3b7ced37	0.003859354
174	0xbde6902c	-0.11257967
175	0xbde023f5	-0.10944358
176	0x3d88a40f	0.06671917
177	0x3d10ceca	0.03535346
178	0x3db285be	0.087169155
179	0xbd77f473	-0.06053586
180	0xbda4a88e	-0.08039962
181	0xbd758783	-0.059943687
182	0x3de498a8	0.11161929
183	0x3dadae53	0.08480515
184	0xbe085203	-0.13312535
185	0xbc1dd3ff	-0.009633063
186	0xbd6b6337	-0.057467666
187	0x3c9c0ee3	0.019050067
188	0xbd616037	-0.0550234
189	0xbdbb8dcd	-0.09157906
190	0xbdcf21b2	-0.10113849
191	0xbd68a2f4	-0.05679603
192	0xbe04b8f8	-0.12961185
193	0xbdd02ee3	-0.10165193
194	0xbe0515cc	-0.12996596
195	0xbd60f94b	-0.054925244
196	0xbcd24ad3	-0.025670445
197	0x3d2a5fa4	0.041595116
198	0x3e06867c	0.13137239
199	0x3d9c5b09	0.07634551
200	0xbdb94ff8	-0.09048456
201	0x3caa028b	0.020753166
202	0xbd6dd9a6	-0.058068894
203	0xbacf115d	-0.0015798021
204	0x3d45952f	0.048237976
205	0xbcfade5e	-0.030623611
206	0x3e098176	0.13428292
207	0xbd37c70f	-0.04486757
208	0xbd8e7185	-0.06955246
209	0xbd8dfa4f	-0.06932508
210	0xbde2669b	-0.11054727
211	0x3ba58d84	0.0050522704
212	0xbdc0a79f	-0.09406971
213	0x3db16198	0.08661193
214	0xbde1e341	-0.11029673
215	0xbd7ddd95	-0.061978895
216	0xbd993b39	-0.07481999
217	0xbd40a3e9	-0.047031317
218	0x3a38ecea	0.0007054346
219	0xbdea8ca5	-0.11452607
220	0x3d4612aa	0.048357643
221	0x3aad80b5	0.001323721
222	0xbd1cb662	-0.03825987
223	0xbc531b67	-0.012884951
224	0x3d8c5360	0.0685184
225	0xbd5faf50	-0.05461055
226	0xbd62c9ce	-0.055368237
227	0x3d7336bc	0.05937837
228	0x3dd38f1f	0.103300326
229	0x3de1d92c	0.110277504
230	0xbd9aa218	-0.07550448
231	0xbdea3599	-0.11436004
232	0xbd9460bc	-0.07245013
233	0xbdaafcd9	-0.08349008
234	0xbde9d9fd	-0.11418531
235	0x3ce6db43	0.028180724
236	0x3d076a9c	0.033060655
237	0x3d58f154	0.052964523
238	0x3d17361d	0.03691684
239	0xbd4317a9	-0.047629986
240	0x3d9c9cbc	0.07647082
241	0x3df2e12d	0.11859355
242	0xbd102ca3	-0.03519882
243	0x3dcbe009	0.09954841
244	0x3d445b00	0.047938347
245	0x3ceb0ff8	0.028694138
246	0x3da47304	0.0802975
247	0xbd2b4f24	-0.04182352
248	0x3d16faa4	0.036860123
249	0xbd76301a	-0.060104467
250	0x3ca0c50a	0.019625206
251	0x3db7073e	0.08936928
252	0xbb5c6f9a	-0.0033635856
253	0xbe01c701	-0.1267357
254	0xbd765a06	-0.060144447
255	0xbc970add	-0.018437797

model.0.0.weight f4 [32, 1, 3, 3]
0	0x3e89d3d8	0.26919436
1	0x3e9604cd	0.29300538
2	0xbd8737b4	-0.066024214
3	0x3e93bdd1	0.28855756
4	0xbdb1efc8	-0.08688313
5	0x3d603a0c	0.054742858
6	0xbe322f93	-0.1740096
7	0x3e3fa76c	0.1871621
8	0x3e91c31c	0.2846917
9	0xbe7c5ed6	-0.24645552
10	0x3e939490	0.28824282
11	0x3d7d699a	0.061868288
12	0x3e72aa1b	0.23697703
13	0x3c9b005e	0.018921074
14	0x3e0db4a3	0.13838439
15	0xbd1ff05a	-0.039047576
16	0x3e8c4a45	0.27400413
17	0x3d87550d	0.06608019
18	0xbe1c485b	-0.15261976
19	0x3db19d79	0.08672614
20	0xbe1d2e11	-0.15349604
21	0xbd17c9d8	-0.037057728
22	0xbe0b4c10	-0.13603234
23	0x3e6077b6	0.21920666
24	0xbe866035	-0.26245275
25	0xbe22cfd9	-0.158996
26	0xbdce3697	-0.10069006
27	0xbe4bd376	-0.19904885
28	0x3d076502	0.033055313
29	0xbea7cce7	-0.32773516
30	0x3e9aa405	0.30203262
31	0xbe90612c	-0.28199136
32	0x3e844b65	0.2583877
33	0x3d6d2c33	0.05790348
34	0xbdd8303d	-0.10556076
35	0x3e55a83b	0.20864956
36	0x3d49cd71	0.04926819
37	0x3e87ae41	0.26500133
38	0x3d00445e	0.0313152
39	0xbdcc9602	-0.09989549
40	0x3dc123c0	0.09430647
41	0xbdb0ca82	-0.08632375
42	0x3e1a8390	0.1508925
43	0x3e9bf2d0	0.3045869
44	0x3e40ec69	0.18840183
45	0xbe1271f6	-0.14301285
46	0x3e47a497	0.1949638
47	0x3d80d7b9	0.06291146
48	0x3e2c16ba	0.16805544
49	0xbe4e4a7b	-0.201456
50	0xbea69111	-0.32532552
51	0xbe0ce359	-0.13758601
52	0xbe87d552	-0.26529938
53	0x3e873716	0.26409215
54	0x3dae1053	0.08499207
55	0x3dfe6622	0.12421824
56	0x3dbffcbf	0.09374379
57	0xbc9b712c	-0.018974863
58	0x3e7d8e0b	0.24761216
59	0xbe7dcf88	-0.24786198
60	0x3bad21ce	0.005283571
61	0xbe786c06	-0.24259958
62	0x3db3af1d	0.087736346
63	0xbde9b660	-0.114117384
64	0x3dd3156a	0.10306819
65	0xbd8b2d62	-0.067957655
66	0x3e8e4e5d	0.2779416
67	0xbe483dd7	-0.1955484
68	0xbe48a5e1	-0.19594528
69	0xbe488cb2	-0.19584921
70	0x3e9b0229	0.30275086
71	0x3deaca98	0.11464423
72	0x3ea544a1	0.32278922
73	0xbe8c2428	-0.27371335
74	0xbea6c311	-0.325707
75	0xbe81b396	-0.25332326
76	0xbe5e122b	-0.21686618
77	0x3e12788f	0.14303802
78	0x3e027478	0.12739742
79	0x3e91eb20	0.284997
80	0xbe278aec	-0.16361588
81	0xbe65f034	-0.22454911
82	0x3e388948	0.18021119
83	0xbe0584d2	-0.13038948
84	0x3e4e1285	0.20124252
85	0xbda34ca2	-0.07973601
86	0x3e440900	0.19144058
87	0xbe86008c	-0.26172292
88	0xbe2ecba8	-0.17069876
89	0x3dcdb946	0.10045104
90	0x3d8fdc23	0.070244096
91	0xbdaecd7a	-0.08535285
92	0x3e4aec25	0.19816644
93	0x3e63808a	0.22217003
94	0xbe7b4f75	-0.24542029
95	0xbe39bdb1	-0.18138768
96	0x3e997dcd	0.2997879
97	0xbdefbb7f	-0.11705684
98	0xbdfa5324	-0.12222889
99	0xbea72a07	-0.32649252
100	0xbe43677c	-0.19082445
101	0x3db60d3b	0.08889242
102	0xbd5679ce	-0.052362256
103	0xbe7e6588	-0.24843419
104	0x3c36e853	0.011163789
105	0xbe62e803	-0.22158818
106	0xbe8f2742	-0.2795964
107	0xbe3634cc	-0.17793578
108	0xbe93fb3f	-0.28902623
109	0xbe586771	-0.2113321
110	0x3eab4bb1	0.33456185
111	0x3d90c6e0	0.070691824
112	0x3ddee2cf	0.10883104
113	0xbe9ba817	-0.3040168
114	0xbe665889	-0.22494711
115	0xbdf413a6	-0.1191781
116	0x3d46a8b1	0.04850072
117	0xbe934799	-0.28765562
118	0xbe129043	-0.14312844
119	0xbe505d5b	-0.20348112
120	0x3be8a7c4	0.0071000773
121	0xbdf7012f	-0.12060773
122	0xbcd27ea7	-0.025695158
123	0xbe65ca39	-0.22440423
124	0xbe6c61f7	-0.23084246
125	0xbe4bfc4b	-0.19920461
126	0xbde73f87	-0.11291414
127	0xbe864710	-0.2622609
128	0x3e8f01d8	0.27931094
129	0xbd8418a0	-0.06450009
130	0x3e937100	0.2879715
131	0x3dd6eeea	0.10494788
132	0xbe90fd71	-0.2831836
133	0x3e6ad4f0	0.22932792
134	0xbdbed3f8	-0.093177736
135	0xbe0a2616	-0.13491091
136	0xbe918d46	-0.28428096
137	0xbeaff2d8	-0.34364963
138	0x3ddd7479	0.10813231
139	0xbd7860f4	-0.060639337
140	0x3e0beaeb	0.13663833
141	0xbe84a8cb	-0.2591003
142	0x3e86e2bb	0.26344857
143	0xbe6c521e	-0.230782
144	0xbd45dc26	-0.048305653
145	0x3d9dcbf1	0.07704914
146	0x3e370488	0.17872822
147	0x3e855ffb	0.2604979
148	0x3e99ca29	0.30037048
149	0xbe8592ad	-0.26088467
150	0x3d971254	0.07376543
151	0xbe1b9816	-0.15194735
152	0xbd32f83d	-0.04369377
153	0xbe81bf15	-0.25341097
154	0x3e973f16	0.29540318
155	0xbe8282c5	-0.25490394
156	0x3e3650ae	0.17804214
157	0x3dd8ea35	0.105915464
158	0x3dbe64b7	0.092965536
159	0xbe294a61	-0.1653228
160	0x3ea2a402	0.31765753
161	0x3da50297	0.080571346
162	0x3d1f962f	0.038961586
163	0xbe98dbff	-0.29855344
164	0x3e0ce1b8	0.1375798
165	0xbd383b52	-0.044978447
166	0xbe1675b4	-0.14693338
167	0x3e95b835	0.292421
168	0x3da10f4c	0.07864246
169	0xbe341ebe	-0.17589852
170	0xbe245130	-0.16046596
171	0xbd03c77f	-0.032172676
172	0x3e2f4447	0.1711589
173	0xbdcc06db	-0.09962245
174	0xbe47d9f1	-0.19516732
175	0xbdf162d5	-0.11786429
176	0xbe82f537	-0.2557771
177	0x3df7c8f5	0.120988764
178	0x3e86181d	0.26190272
179	0xbe9e20fc	-0.3088454
180	0x3da17ead	0.078854896
181	0x3e34a9e3	0.17642932
182	0x3d86bb23	0.06578662
183	0xbdfb2ae3	-0.12264039
184	0x3e2e138a	0.16999641
185	0x3e31581f	0.17318772
186	0x3e063b66	0.13108596
187	0xbd572603	-0.052526485
188	0xbda63030	-0.0811466
189	0x3d1b61f1	0.0379352
190	0xbd666a5c	-0.056253776
191	0xbdc24656	-0.09486072
192	0x3e5e4093	0.2170432
193	0x3e95dc32	0.29269558
194	0xbcc8222f	-0.024430363
195	0xbd8e0c2d	-0.06935916
196	0x3c3805d8	0.011231862
197	0xbc4820d9	-0.012214863
198	0x3da6b3d4	0.08139768
199	0x3dc2fb0d	0.095205404
200	0xbe9994cc	-0.29996336
201	0xbdfc782c	-0.123276085
202	0x3e8fa873	0.28058204
203	0x3e04bbb7	0.12962233
204	0xbc908ba1	-0.017644705
205	0xbe4f49ad	-0.20242949
206	0xbe532f5b	-0.20623533
207	0xbe95693a	-0.29181844
208	0xbdd292c2	-0.10281898
209	0x3df1192b	0.117723785
210	0x3e604529	0.21901383
211	0x3e242232	0.1602867
212	0xbe93b82d	-0.28851452
213	0xbe46b1d8	-0.1940378
214	0xbd3cf8e1	-0.046135787
215	0x3ea848d9	0.32868078
216	0x3d5191de	0.0511645
217	0xbdacfe1b	-0.08446904
218	0x3e0c9ac3	0.13730912
219	0xbe037803	-0.1283875
220	0xbe610d92	-0.21977833
221	0x3e71197e	0.23544881
222	0xbe20a5e0	-0.15688276
223	0xbd910415	-0.07080857
224	0xbeabcf15	-0.3355643
225	0x3e603ec1	0.21898939
226	0x3e7baeb8	0.24578369
227	0x3deb2395	0.11481396
228	0xbe78103d	-0.24224944
229	0xbead9cc2	-0.3390866
230	0xbe90b026	-0.2825939
231	0x3e720f32	0.23638609
232	0x3e15c22f	0.14624856
233	0x3e87e250	0.2653985
234	0x3e3cdb0b	0.18442933
235	0x3dc781c7	0.0974155
236	0x3c3e97ba	0.011632854
237	0xbe7bbce5	-0.24583776
238	0xbe88c3fd	-0.26712027
239	0xbe9701eb	-0.2949365
240	0x3e008000	0.12548828
241	0xbe31e1ee	-0.17371342
242	0xbd9fdf4b	-0.07806262
243	0xbe3118ea	-0.1729466
244	0xbd3116db	-0.043234687
245	0xbe5f6065	-0.21814115
246	0xbe67006f	-0.22558759
247	0x3dce509d	0.100739695
248	0xbde56bf8	-0.11202234
249	0x3e439a32	0.1910179
250	0xbdfb0db5	-0.12258474
251	0xbe85a650	-0.2610345
252	0xbd55b3a0	-0.052173257
253	0xbe1f212e	-0.15540001
254	0xbdc46870	-0.09590232
255	0xbe9eca33	-0.3101364
