teacher_checkpoint_mark2.2.0.pt (torch, 186478 bytes, 32 tensors)

conv_block1.0.weight f4 [32, 1, 3, 3]
000000 3f 6b 87 3e b9 6d 92 3e da 4b 85 bd 29 17 97 3e
       0.2644901 0.28599337 -0.06508608 0.29509857
000010 4b e1 ab bd b5 2e 81 3d 3f 22 37 be dd aa 38 3e
       -0.083925806 0.06307737 -0.17884158 0.18033929
000020 a1 01 94 3e 3c 50 81 be 61 81 8e 3e 71 4f 51 3d
       0.28907493 -0.25256526 0.27833083 0.05110115
000030 c9 9b 71 3e 54 d5 c3 3c ad 85 1f 3e 02 34 c8 bc
       0.23594584 0.023905434 0.15578337 -0.024438862
000040 1e cf 8e 3e dc 5a 99 3d 46 b5 0e be 72 8c c9 3d
       0.27892393 0.07488033 -0.13936338 0.09841241
000050 0a 2a 16 be a9 5b 23 bd a7 87 12 be dd 73 55 3e
       -0.14664474 -0.039882336 -0.1430956 0.2084498
000060 ff 2e 8b be b5 5e 33 be 71 c6 ec bd 11 d3 49 be
       -0.27184293 -0.17516597 -0.11561287 -0.19709422
000070 56 36 15 3d 8c 1e a6 be 58 a8 9b 3e d5 db 8e be
       0.036428772 -0.3244518 0.30401874 -0.27902094
000080 16 b4 85 3e 27 c4 7e 3d 60 83 cd bd fc ee 5a 3e
       0.26113957 0.062198784 -0.100348234 0.21380228
000090 c1 cc bc 3d 1d 5c 9d 3e 85 22 8b 3d 4f 3a dc bd
       0.09218741 0.3073434 0.067936935 -0.10753309
0000a0 31 0c aa 3d e7 e6 d1 bd c8 0a d7 3d 68 e2 81 3e
       0.083031066 -0.10249119 0.10500103 0.25368047
0000b0 cc 8b 15 3e 7e d2 04 be da e3 4d 3e e7 57 82 3d
       0.1460411 -0.12970921 0.2010645 0.06364422
0000c0 87 e7 3e 3e c7 6e 48 be 48 a1 ac be 3a 9c 01 be
       0.18643008 -0.19573508 -0.33716798 -0.12657252
0000d0 95 29 87 be bd 81 83 3e 30 35 c6 3d 4e 2e 07 3e
       -0.26398912 0.2568492 0.096781135 0.13201258
0000e0 0b 0b d6 3d de 16 8b bc a1 7c 7e 3e 0f 7e 79 be
       0.10451325 -0.016978677 0.2485223 -0.24364494
0000f0 0a 0a 4b 3c 77 5d 72 be 8b 4b c0 3d e8 3a ea bd
       0.01239253 -0.23668467 0.09389409 -0.11437017
000100 a8 30 d3 3d 19 50 89 bd e5 03 8f 3e b4 1f 46 be
       0.10312015 -0.067047305 0.2793266 -0.19348031
000110 bc a1 45 be 80 b3 45 be c1 6c 9c 3e e9 27 f2 3d
       -0.19299978 -0.19306755 0.30551723 0.118240185
000120 89 13 a4 3e b9 f2 8a be db 17 9e be 79 b5 87 be
       0.32046154 -0.27138308 -0.30877575 -0.2650564
000130 7a d5 69 be 5c 0a 0f 3e 46 14 02 3e b2 b6 91 3e
       -0.22835341 0.13968796 0.12703046 0.28459698
000140 61 88 23 be 4e b5 51 be 5f 64 48 3e c3 e0 eb bd
       -0.15969993 -0.20479318 0.19569539 -0.11517479
000150 4e 29 57 3e d1 29 95 bd db 99 4c 3e 7b 0d 86 be
       0.2101185 -0.072833665 0.19980566 -0.2618216
000160 ac 98 2f be 6a fe cd 3d af 01 92 3d 0c f5 a7 bd
       -0.17148083 0.10058291 0.07129227 -0.08201036
000170 e8 38 4f 3e 0c 4a 5e 3e 1c 09 7e be a0 6d 3b be
       0.20236552 0.21707934 -0.24808162 -0.18303537
000180 6b c6 98 3e b0 3b ee bd ce b7 f7 bd ee 2f a9 be
       0.2983888 -0.11632478 -0.12095605 -0.3304438
000190 31 bb 52 be 37 b8 91 3d 4c bb 55 bd 05 16 85 be
       -0.2057922 0.07115214 -0.052180573 -0.25993362
0001a0 8a 34 ac bb 21 6e 57 be fe 33 8b be 99 65 33 be
       -0.0052552866 -0.21038105 -0.27188104 -0.17519225
0001b0 dd 29 93 be 9c 6f 60 be 9f 5e a3 3e 48 8c 8d 3d
       -0.28742877 -0.21917576 0.31908128 0.06911522
0001c0 11 ea c5 3d 41 23 a7 be c6 1f 65 be c9 69 03 be
       0.09663785 -0.32644084 -0.22375402 -0.12833323
0001d0 98 df fb 3c e2 5e 86 be 9e 7a f5 bd f7 aa 39 be
       0.030746266 -0.26244265 -0.11986278 -0.18131624
0001e0 6b 98 41 3c 8c 5c f8 bd 70 8c c8 bc 23 52 79 be
       0.011816124 -0.12127027 -0.024481028 -0.24347739
0001f0 c5 7d 84 be 3a f1 64 be 9d cf dd bd 6a 84 84 be
       -0.25877205 -0.22357646 -0.10830615 -0.25882274
000200 50 8d 8f 3e 1e 7e 74 bd 35 96 95 3e e9 90 db 3d
       0.280375 -0.059690587 0.2921616 0.10720999
000210 19 14 91 be 6f bd 69 3e 03 3f c4 bd 9e 73 10 be
       -0.28335646 0.2282617 -0.09582331 -0.14106604
000220 94 c6 94 be 76 93 ab be ff 4f da 3d d8 8c 6a bd
       -0.29057753 -0.3351094 0.10659789 -0.057263225
000230 44 6d 17 3e 17 1e 85 be 08 6a 87 3e 35 23 66 be
       0.14787775 -0.2599952 0.26448083 -0.22474368
000240 b9 63 a6 bc 4e 86 e0 3d ff 6f 50 3e a4 2f 72 3e
       -0.020311223 0.109631166 0.20355223 0.23650986
000250 98 61 8a 3e d2 7c 93 be 14 94 a3 3d e3 70 18 be
       0.27027583 -0.28806168 0.07987228 -0.14886813
000260 fe 48 2d bd 4e c3 8a be 49 b7 8d 3e 47 f7 8b be
       -0.04230594 -0.2710213 0.27678898 -0.27337095
000270 ca 0c 1f 3e 7d 88 a9 3d 1c 00 91 3d 5f f0 27 be
       0.15532222 0.08277986 0.07080099 -0.16400288
000280 0e 9f a3 3e 39 44 a4 3d 46 3d 2b 3d 42 27 94 be
       0.31957287 0.08020825 0.04180648 -0.289362
000290 5c a6 17 3e c9 2a 67 bd 89 ab 1a be 27 c3 95 3e
       0.14809555 -0.056437287 -0.15104498 0.29250452
0002a0 45 82 8a 3d 08 c3 37 be 3b e8 22 be 60 30 dc bc
       0.06763128 -0.17945492 -0.15908901 -0.026878536
0002b0 6b 8d 34 3e 92 d0 c2 bd 0f a9 47 be 0e 2f f1 bd
       0.17632072 -0.09512438 -0.19498084 -0.11776553
0002c0 cf 34 83 be 28 11 d7 3d 3a 80 7b 3e d3 8f a7 be
       -0.25626227 0.10501319 0.24560633 -0.32726917
0002d0 59 32 a0 3d 93 a3 2d 3e ba d0 70 3d fc cd 11 be
       0.07822103 0.1695693 0.058792807 -0.14238733
0002e0 cd 89 15 3e eb 67 18 3e 98 69 bf 3d b4 c8 ba bd
       0.14603348 0.14883392 0.09346312 -0.09120312
0002f0 ae dc fa bd 3c b8 77 3c fa ad 9a bd ef e0 e5 bd
       -0.122491226 0.0151196085 -0.07552715 -0.11224543
000300 07 02 4f 3e df 78 8e 3e 54 b2 19 bd 92 5e 9b bd
       0.20215617 0.27826592 -0.037523583 -0.07586397
000310 30 57 8f 3b bc f5 9d bc 51 91 bd 3d 5c ff dc 3d
       0.004374407 -0.019282214 0.092562325 0.107908934
000320 ff 2c 93 be 8c 58 03 be 48 b2 8d 3e 8f 26 ff 3d
       -0.28745267 -0.12826747 0.2767508 0.12458526
000330 fc 19 e1 bc f3 fa 59 be 84 de 60 be 42 ef 96 be
       -0.02747821 -0.21287136 -0.21959883 -0.29479414
000340 12 8a d7 bd d6 dc f1 3d b4 3e 5d 3e 56 f4 21 3e
       -0.10524382 0.11809699 0.2160595 0.15815863
000350 7a 46 93 be f5 96 48 be 8d 50 44 bd 5e 58 a8 3e
       -0.28764707 -0.19588836 -0.04792838 0.3287992
000360 3a a5 49 3d c5 2f ba bd 36 b1 03 3e 47 f2 04 be
       0.049229838 -0.090911426 0.1286057 -0.12983046
000370 db cd 69 be bf f9 65 3e bf 5d 1c be 75 11 a9 bd
       -0.22832434 0.22458552 -0.15270136 -0.08255283
000380 ef 6e b0 be 07 35 5c 3e 19 85 78 3e 4b 73 e4 3d
       -0.34459636 0.21504603 0.24269523 0.11154803
000390 02 4c 7b be 7e b2 ae be d3 e3 91 be b9 f4 6f 3e
       -0.24540713 -0.34120554 -0.2849413 0.23433198
0003a0 ad 68 15 3e 52 6a 87 3e 37 93 50 3e d5 07 ea 3d
       0.14590712 0.26448303 0.20368658 0.11427275
0003b0 0d bc b7 3c 5b 2b 66 be b4 c8 7a be 54 b5 8e be
       0.022428537 -0.22477476 -0.24490625 -0.27872717
0003c0 84 c2 10 3e d6 c0 2a be 01 be a7 bd 2c e1 35 be
       0.14136702 -0.16675124 -0.08190537 -0.17761678
0003d0 df f8 4e bd b2 6c 64 be 89 8d 5c be 95 fb d4 3d
       -0.05053031 -0.22307089 -0.21538366 0.10399548
0003e0 fa f3 d0 bd 9e 01 47 3e 12 76 00 be fe 90 86 be
       -0.10202785 0.1943421 -0.1254504 -0.26282495
0003f0 21 65 48 bd f0 79 1b be dd 6a bb bd 71 e9 9d be
       -0.04892457 -0.15183234 -0.09151242 -0.30842164

conv_block1.0.bias f4 [32]
000000 05 13 8f 3e 3e f3 55 bd ca 42 1b bd 84 a8 09 be
       0.27944198 -0.052233927 -0.037905492 -0.1344319
000010 e4 23 9a be 77 fa a5 be f9 fe fc 3d 69 d0 39 be
       -0.30105507 -0.32417652 0.1235332 -0.18145908
000020 83 7a 5b be 6f a6 dc bc 13 81 e3 bd 97 c6 dc bd
       -0.21433453 -0.02693483 -0.11108603 -0.107800655
000030 22 8a 2b 3c 75 c0 90 bd 5d c3 ea bd 8e 61 23 be
       0.010469945 -0.07067958 -0.11463044 -0.15955183
000040 06 fc 8a be 45 50 8f 3e 5b 7f 08 be 97 8a b4 3d
       -0.27145404 0.27990928 -0.13329832 0.088154964
000050 d8 29 ed bd ee cb da 3c 18 24 9f 3e 85 d1 1e 3e
       -0.11580247 0.02670857 0.31082225 0.15509613
000060 0d f3 93 be c0 84 07 3e 99 17 a2 3e 8a 48 b3 3d
       -0.2889637 0.13234234 0.3165863 0.0875407
000070 08 8a 64 3e 2f 35 a8 3e c1 a7 51 bd e3 a2 8d 3d
       0.2231828 0.32853076 -0.051185373 0.06915834

conv_block1.1.weight f4 [32]
000000 25 e1 7e 3f 4b f6 7e 3f cf 86 7e 3f 50 80 81 3f
       0.99562293 0.99594563 0.9942445 1.0117283
000010 25 7d 7d 3f e9 74 7f 3f 7b 86 80 3f c8 61 82 3f
       0.9901908 0.99787766 1.004104 1.018609
000020 77 46 7f 3f f8 5c 80 3f 18 25 7f 3f 67 08 7e 3f
       0.99716896 1.0028372 0.99665976 0.9923157
000030 69 2e 7f 3f d9 a8 7e 3f 32 62 80 3f df 6f 7e 3f
       0.9968019 0.9947639 1.0029967 0.9938945
000040 be eb 7e 3f 14 1c 7f 3f 68 1f 7f 3f 2f 57 7f 3f
       0.99578464 0.9965222 0.996573 0.99742407
000050 68 b0 80 3f 8a 4c 7e 3f d2 d8 7d 3f e8 58 80 3f
       1.0053835 0.9933554 0.99158967 1.0027132
000060 c8 7a 80 3f 18 8e 7f 3f 35 18 7f 3f 92 92 7f 3f
       1.003747 0.9982619 0.9964631 0.99833024
000070 41 53 82 3f 42 bc 81 3f c0 c1 7f 3f 0a 48 7f 3f
       1.0181657 1.0135577 0.99905014 0.997193

conv_block1.1.bias f4 [32]
000000 3e b7 16 bc d0 0c 62 3b e7 8d 22 3b 79 50 14 bc
       -0.009198962 0.00344925 0.0024803819 -0.009052389
000010 05 5e 58 bc 7c 99 99 3b 5b 24 38 bc e4 ac 01 3d
       -0.01320601 0.004687486 -0.011239137 0.031659022
000020 ea d0 5e bc d2 d9 e9 bb 26 6a 8f bb 48 77 21 bc
       -0.013599614 -0.007136562 -0.0043766676 -0.009855099
000030 65 43 59 3b 22 6f b7 bb 92 c7 dc bb ab 39 02 bc
       0.0033151743 -0.005597965 -0.006737658 -0.007948319
000040 52 b9 58 bc b7 ff 5a 3b 51 04 de ba fb d7 87 3a
       -0.013227778 0.0033416578 -0.0016938542 0.001036405
000050 29 33 53 3b 2d e2 61 3b 22 ca 73 3b de 91 91 bb
       0.0032226539 0.0034467087 0.0037199338 -0.0044424376
000060 25 dd 93 3b b5 6c d8 39 b7 99 d4 b9 c3 a6 24 39
       0.0045124465 0.00041279724 -0.00040550317 0.00015702382
000070 e3 e9 8c 3a b1 bc 5a 3c ad 21 16 bc 53 5f 16 3a
       0.0010750856 0.013350652 -0.009163302 0.00057362503

conv_block1.1.running_mean f4 [32]
000000 58 d3 b3 3d f6 18 77 be 0f ed ad 3d 03 fd 40 be
       0.08780545 -0.24130616 0.08492481 -0.18846516
000010 ea 56 d4 be 20 59 58 be ea e6 dd 3d 88 0a 40 be
       -0.4147256 -0.21127748 0.10835059 -0.18754017
000020 4f 93 08 be d0 b8 2e bd 63 e0 b1 bd c1 86 2e 3e
       -0.13337444 -0.04265672 -0.086853765 0.17043592
000030 9a 02 15 3e c0 76 2b 3e 21 2c 2b be 5c 6b bd bd
       0.14551774 0.16744518 -0.16716053 -0.09248993
000040 c8 ae b7 be 86 e3 2f 3e f0 51 b0 bd 8a cd 69 3e
       -0.35875535 0.17176637 -0.08609378 0.22832313
000050 01 8a 33 be 03 08 97 bd 6f 66 a1 3e db 3f 1d 3e
       -0.17533113 -0.07374575 0.31523463 0.1535639
000060 66 a7 17 be c6 b2 50 3e fe 86 02 3f 00 6c 69 3e
       -0.14809951 0.20380697 0.5098723 0.22795105
000070 c9 e9 7d 3e 67 f8 87 3e a7 81 16 be d2 53 8e 3e
       0.24796213 0.26556703 -0.14697896 0.27798325

conv_block1.1.running_var f4 [32]
000000 fd d1 7e 43 69 09 20 43 e6 35 f2 42 ef c2 a3 40
       254.82027 160.03676 121.10527 5.1175456
000010 bf d6 24 43 fe c1 f5 41 a1 7c 2b 41 b8 b6 00 40
       164.83885 30.719723 10.717927 2.0111523
000020 b7 3c 11 42 3d f1 b4 40 20 90 9c 40 7a c1 ef 43
       36.30929 5.654448 4.8925934 479.51154
000030 f1 49 d1 42 e5 17 e7 43 b3 a8 eb 40 e8 f5 0f 43
       104.64442 462.18668 7.364343 143.96057
000040 fd ef 23 42 90 73 be 41 e4 7b a8 41 3b 8a 6e 42
       40.984364 23.806427 21.060493 59.63499
000050 1b ee e8 41 2c 17 29 41 ee 86 95 41 e4 f4 b0 40
       29.116262 10.568157 18.690884 5.529894
000060 20 d3 bd 42 bf 9a 00 42 4b cd 8f 42 eb c9 28 43
       94.91235 32.15112 71.90096 168.78874
000070 57 f2 02 41 bb 95 60 40 9d 29 c1 41 f3 04 8d 43
       8.184165 3.5091388 24.145319 282.03867

conv_block2.0.weight f4 [64, 32, 3, 3]
000000 88 bf 0c bd 6a 22 cb bb 05 4d 4a 3d 85 8a 10 3d
       -0.034362346 -0.006199171 0.049389858 0.035288353
000010 ee 13 05 bd 73 34 2f bd 83 95 1f bd 2f 8f 68 bd
       -0.03248971 -0.04277463 -0.038960945 -0.056777176
000020 d9 31 3c bd 56 51 00 bc 09 96 3a 3d d5 7f 84 3c
       -0.045945976 -0.007831892 0.04555324 0.016174236
000030 59 d9 2b bd d7 c5 35 bd 3c a6 01 3d 80 c4 35 bd
       -0.041955326 -0.044378128 0.031652674 -0.04437685
000040 a4 61 03 bc 9a a9 d0 3c 3f 54 b9 bc 21 b0 56 bb
       -0.008018885 0.025471497 -0.02262318 -0.003275879
000050 a6 da e3 ba 0f 18 d3 bb 82 0c c7 bc ba 22 40 bd
       -0.0017383888 -0.006442077 -0.024297956 -0.046908118
000060 36 88 2a bd 8b d1 e1 bc 35 3d 7b 3d b6 0b 03 bd
       -0.041633807 -0.027565738 0.06133767 -0.03199359
000070 28 03 46 bd 7f b4 f3 3b 18 e2 b5 3c 1e f9 0a 3d
       -0.048342854 0.0074372883 0.022202536 0.033928983
000080 9c bf 3d 3d 3c b0 0f 3d bd 78 85 bd d8 e8 e1 3a
       0.04632531 0.03508018 -0.065171696 0.001723553
000090 c1 52 33 3d d2 4c f1 3a cf 76 e0 bc 6d e5 78 3d
       0.043780092 0.0018409735 -0.027400402 0.060765672
0000a0 17 2d 90 bc e2 07 f2 bc 49 69 55 bd 21 8e 75 3b
       -0.017599626 -0.029544774 -0.05210236 0.0037468749
0000b0 65 3f d0 3c 20 00 84 3c 59 ba 5c 3c 60 3b 2d bd
       0.025420854 0.01611334 0.013472163 -0.042292953
0000c0 46 1d 3f bd 96 3a f2 3b 0b 3c 78 3d 31 27 22 3d
       -0.046658777 0.007392238 0.060604136 0.039588157
0000d0 84 03 fb bc cd 38 53 bb 82 e7 30 bd 7f c2 ed bc
       -0.030641325 -0.00322299 -0.043189533 -0.029023407
0000e0 f6 9f 20 3c bf 83 21 3d fa ea 65 3d 96 06 3e bd
       0.009803763 0.039432283 0.056132294 -0.046393
0000f0 95 fb 2f 3d b9 a6 17 bd b8 4e cb 3c 5d 89 41 3d
       0.042964537 -0.037024233 0.02481781 0.04725014
000100 26 c9 15 ba d3 46 42 3d d2 10 69 bd 8f d5 c9 bc
       -0.00057138724 0.047430824 -0.056900807 -0.024637965
000110 89 05 e3 3c 56 3b e1 bc 76 ec cc bc fb 5c 37 bd
       0.0277126 -0.027494114 -0.025015097 -0.044766407
000120 8e 79 1e 3d ea c0 ca 3c df c1 8f 3c 02 bb d1 bc
       0.038690142 0.024750192 0.0175485 -0.025601868
000130 ca b5 30 bd cb 63 74 3c f2 8f b7 3c 03 4f ca bc
       -0.043142118 0.014916371 0.022407506 -0.024695879
000140 db 2a 2e bc ed 32 39 3d 9e f1 08 3c cc 39 a9 3b
       -0.010630335 0.045214582 0.008358387 0.0051643606
000150 82 43 4f bc 86 0e 5b bd b5 9c 68 bd 41 06 d0 bc
       -0.012650372 -0.053480648 -0.056790072 -0.025393607
000160 97 4f f8 bc d3 e0 83 3c dd b3 ba bc ce c3 04 bd
       -0.030311389 0.016098415 -0.022790844 -0.032413296
000170 44 6e 65 3d bf 91 d0 3c e1 bb 43 3d 05 0d 13 bc
       0.05601336 0.025460122 0.047786597 -0.008975272
000180 6e 61 d6 bc 25 52 c0 3c 83 a7 83 bc ad ed 0c bd
       -0.026169505 0.02347667 -0.016071087 -0.034406353
000190 4f 18 00 b9 c6 87 97 bc 49 f5 14 bd dc 9c 27 3d
       -0.00012216087 -0.018497359 -0.036366735 0.040921077
0001a0 b5 e2 5b 3d 0e 74 81 3c 21 fa bd bb af 4f 4b bd
       0.053683 0.01580241 -0.00579764 -0.04963654
0001b0 7a 57 8f bc 44 67 8e 3c ed 91 f7 3c 0b 67 f9 38
       -0.017497767 0.017383225 0.03022095 0.000118924385
0001c0 f3 75 91 bc f6 1c 1e 3d 1d a6 26 bd 46 c1 29 3d
       -0.017756438 0.038601838 -0.04068576 0.041444086
0001d0 26 0f 98 bc 87 b0 9f 3b 9c 02 14 bc d1 69 2a 3c
       -0.01856191 0.0048733386 -0.009033825 0.010401205
0001e0 25 9c 25 bc 98 f0 47 3d 04 4b a5 3b f4 7c 56 3d
       -0.010108029 0.048813432 0.005044343 0.05236526
0001f0 9a 2e 7b 3d d5 f1 bd bc ef 04 d9 bc 76 b2 74 3d
       0.06132374 -0.023186604 -0.02649161 0.059740506
000200 8b 45 73 3d 27 f5 20 bd e5 17 37 3a 97 9a 7d bd
       0.059392493 -0.039296295 0.00069844566 -0.061915006
000210 78 3e 28 bd f7 68 57 3c 6c 5a 8f 3b 73 ee 68 3c
       -0.0410752 0.013147584 0.004374793 0.014217007
000220 a5 eb 7e bc d6 69 64 3d 2c 25 78 3c b6 50 f4 bc
       -0.015559112 0.055764996 0.015145581 -0.029823642
000230 a1 97 20 3b 31 41 a8 3c e8 6d d0 3c 5e 98 12 bd
       0.002450444 0.020538898 0.025443032 -0.03578984
000240 0d 71 e4 3c 8d 1a c5 bc 84 9a 34 bd 42 28 e4 bc
       0.027885938 -0.024060512 -0.04409267 -0.027851228
000250 2b 15 7f 3d c8 76 64 3d 15 ca 5c 3d 3f 2c 18 3d
       0.062276047 0.05577734 0.053903658 0.03715157
000260 f4 09 3b 3d 70 1b 0c bb 9f f3 df bc 62 fa 0b 3d
       0.04566379 -0.0021378659 -0.027337847 0.03417433
000270 0b dc 02 bd 21 68 26 bd 23 cd ba bc e4 ae 00 3c
       -0.03194813 -0.04062665 -0.022802895 0.007854197
000280 cf 2d d6 3c 3d 9c fe bc d5 a3 f1 bc c9 91 26 3c
       0.02614489 -0.03108036 -0.029497067 0.010166594
000290 47 4a 02 bd a8 81 fe bc 5f 88 0e 3d eb 41 a2 bb
       -0.031809118 -0.031067684 0.034798022 -0.0049517057
0002a0 28 37 76 3d 15 bf 75 3d e7 f7 ac 3c e7 eb b2 3c
       0.060111195 0.059996683 0.021114303 0.021841003
0002b0 0c 80 62 3c 98 51 59 3b 7a f8 5a 3b 9b d3 e2 3b
       0.013824474 0.0033160206 0.0033412264 0.006922198
0002c0 7c ee fa 3c f3 57 74 3d 68 2b 40 bc 65 4c 9b bc
       0.030631296 0.059654187 -0.011729099 -0.018957326
0002d0 3c 2c 14 bc 5a 39 c6 bc 5a b0 70 3c 58 02 4d 3d
       -0.009043749 -0.02419727 0.014690483 0.050051063
0002e0 4b 57 54 3d 17 e1 07 3d 15 1d 25 bd c3 23 ef bc
       0.05184106 0.033173647 -0.040310938 -0.029191857
0002f0 b9 9b 47 bc 18 cb eb b9 ef 52 7b 3c ad 90 37 bd
       -0.012183123 -0.0004497401 0.015339597 -0.044815708
000300 da 89 9c 3c b4 88 2e bd 70 e5 16 bd 50 82 52 bd
       0.019108701 -0.04261084 -0.036839902 -0.051393807
000310 84 a5 52 3d 09 4a 6b bd f6 90 4a 3d c1 94 e7 3a
       0.05142738 -0.057443652 0.04945465 0.0017668233
000320 60 f2 c2 ba ac 1b 27 3d f1 2f 1c bb 49 d3 2b 3d
       -0.0014873259 0.040797874 -0.0023832286 0.041949544
000330 d2 ba 37 3d f8 0a 4d bd 57 d6 d8 3c f7 8d e6 3b
       0.0448559 -0.05005929 0.026469393 0.0070359665
000340 e4 db d5 3b dd b3 10 ba 52 1f bc 3c 77 07 c4 bc
       0.006526457 -0.0005519966 0.022964153 -0.02392934
000350 7c ec 04 bc 49 c3 7f 3d 80 7f 2a 3d d1 79 5c bb
       -0.008113023 0.062442098 0.0416255 -0.0033641944
000360 69 1f 4f bd e9 57 c1 3b 34 b5 15 bd 0e cf 66 3d
       -0.050567064 0.0059003723 -0.036549762 0.056349806
000370 21 4f f0 bc 17 01 2e 3b 71 4c 07 bc df 2b 60 3c
       -0.029334607 0.0026550943 -0.008257971 0.013682335
000380 8d ed 71 3d b7 7a 6c 3c 84 a2 2d 3d 73 66 5c 3d
       0.059064437 0.014433554 0.042391315 0.05380864
000390 41 56 6b 3d be 9d 29 bc af 95 a3 bb 62 8f 09 3d
       0.057455305 -0.01035255 -0.004992209 0.033584006
0003a0 89 4d 2f bc f5 fb 04 3d 19 ed 21 bc b2 90 1f bd
       -0.010699638 0.032466847 -0.009883189 -0.03895635
0003b0 ce b7 de 3c 01 6a 91 3c a3 a9 05 3d fc ad 89 3d
       0.027187254 0.017750742 0.03263248 0.06722638
0003c0 01 34 3b 3d ea b4 72 3d 95 c9 10 3c 1f fb 44 bd
       0.04570389 0.059254564 0.008837123 -0.04809105
0003d0 56 21 24 bd 02 e6 0b bd 2c 6c 36 bd 44 4d c3 bc
       -0.040070854 -0.0341549 -0.044536754 -0.023840554
0003e0 f7 f1 40 bd 21 12 46 bd 0f c1 fb bc da 67 55 bd
       -0.047105756 -0.048357133 -0.030731706 -0.052100994
0003f0 2a 3f 24 bd eb 86 a0 3c 92 28 21 3d 80 64 bb bb
       -0.0400993 0.019595584 0.03934533 -0.0057187676

conv_block2.0.bias f4 [64]
000000 c3 26 71 bd d1 e0 3f bc 37 c9 0e 3d 36 12 08 bd
       -0.058874857 -0.011711315 0.034859862 -0.033220492
000010 13 1a 9c bc f0 05 db 3a 59 5c c3 bc 7d a4 db 3b
       -0.019055402 0.0016710144 -0.023847746 0.006702958
000020 6b e9 59 bd dc bc 67 3c 8f 32 60 3d bb cb af 3b
       -0.05320112 0.014144149 0.054735716 0.0053648627
000030 c4 38 6b 3d cb 46 49 bd 7f 7b 05 bd 3f 0f 93 bc
       0.057427183 -0.04913978 -0.03258848 -0.017951606
000040 7c 3f 4d 3d a7 05 63 bd a7 50 25 bc af a3 54 bd
       0.05010937 -0.055425312 -0.01009003 -0.051913913
000050 15 13 12 3c 0b 69 4d bd ac 5c 46 bd 66 4b 18 bd
       0.008915682 -0.050149005 -0.048428223 -0.03718128
000060 7b c1 b6 bc 34 89 19 3d 98 bb 2a 3c 33 db 57 bd
       -0.022309056 0.037484363 0.010420702 -0.05269928
000070 4e 0f 66 3d 3e a6 5f bb 6e 75 5b 3c 83 3b fa bc
       0.05616694 -0.0034126188 0.013394697 -0.030545956
000080 33 fa ea bc db 8d 39 bd 3d dc 3e bd 3a 3f fd bc
       -0.028683757 -0.0453013 -0.046596754 -0.030913938
000090 b9 6b 05 3d 7e db cc bc 03 68 4c bd 54 f1 76 3c
       0.032573435 -0.025007006 -0.04990388 0.015072186
0000a0 4e 7f 85 bc 32 b1 26 bd 0f b4 49 3d 63 05 63 bd
       -0.016296055 -0.04069633 0.049243983 -0.05542506
0000b0 d5 7a 71 bd e5 9b 07 3d 7b 2e fd 3c 04 27 b7 bc
       -0.058955032 0.033107657 0.030905953 -0.022357471
0000c0 0e ed 28 3d 19 f8 1c bd bd 04 c3 bc c0 4d 20 bc
       0.041241698 -0.038322542 -0.02380597 -0.009784162
0000d0 70 ce 97 bc 01 84 15 3d f6 30 61 bd f9 60 44 3d
       -0.018531054 0.03650284 -0.054978333 0.047944043
0000e0 b9 4b 0f 3d 03 ed fd bc e8 fd f9 bc 5d d9 06 3c
       0.034984324 -0.030996805 -0.03051658 0.008230534
0000f0 e8 7b 86 ba 93 67 50 bd b7 42 3c 3d 42 12 2e 3d
       -0.0010260316 -0.050880026 0.04596206 0.04249788

conv_block2.1.weight f4 [64]
000000 0b 85 81 3f b5 e5 81 3f 18 07 7e 3f c1 1d 81 3f
       1.0118726 1.0148226 0.99229574 1.0087205
000010 b8 fa 80 3f eb e5 7d 3f b6 a3 80 3f fc 8a 7d 3f
       1.0076513 0.9917895 1.0049961 0.990402
000020 0b 5d 81 3f 8e 14 81 3f ae 6b 81 3f db a6 81 3f
       1.010652 1.0084398 1.0110986 1.0129045
000030 f1 0a 7f 3f c5 3d 82 3f de 31 80 3f 19 9c 7d 3f
       0.9962607 1.01751 1.0015218 0.9906631
000040 72 d8 7d 3f f4 da 7c 3f 55 71 7d 3f be 15 7e 3f
       0.99158394 0.98771596 0.99001056 0.99251926
000050 6a f0 7e 3f 7a 4a 7b 3f 53 ef 7a 3f 28 c2 80 3f
       0.9958559 0.9816052 0.9802143 1.0059252
000060 f8 1f 7d 3f 57 fe 80 3f c8 00 80 3f 4b d0 7f 3f
       0.98876905 1.0077618 1.0000238 0.99927205
000070 a2 53 80 3f a3 52 7d 3f 4e 17 81 3f 6a 27 81 3f
       1.0025523 0.9895422 1.0085237 1.0090153
000080 f4 43 7c 3f d3 13 7c 3f 8f eb 7b 3f 1b b0 82 3f
       0.9854119 0.9846775 0.9840631 1.0209993
000090 72 f7 81 3f f0 37 7d 3f 1a ff 80 3f 82 dd 80 3f
       1.0153639 0.9891348 1.0077851 1.0067599
0000a0 65 81 7e 3f f8 23 82 3f ef c4 81 3f dc 63 7d 3f
       0.9941619 1.0167227 1.0138224 0.989805
0000b0 68 90 7f 3f 1a 04 7b 3f 4f 15 7d 3f 62 f1 7b 3f
       0.9982972 0.98053133 0.9886064 0.98415196
0000c0 c9 79 7d 3f 84 c5 81 3f 6e eb 82 3f e7 03 7e 3f
       0.99013954 1.0138402 1.0228097 0.99224705
0000d0 31 f7 7d 3f 25 ab 7c 3f 05 ec 80 3f 4e fd 7d 3f
       0.9920531 0.98698646 1.0072027 0.9921464
0000e0 36 83 81 3f 75 5f 81 3f ec 46 7c 3f d9 5f 7e 3f
       1.0118167 1.0107256 0.9854572 0.99365
0000f0 fe e8 81 3f 2b 9b 80 3f 53 98 7c 3f 0e aa 7c 3f
       1.0149229 1.0047354 0.9866993 0.9869698

conv_block2.1.bias f4 [64]
000000 39 fd d9 3b f1 c7 6f 3c 5f 5a 6e bc 4f 2b 04 3c
       0.006652501 0.014635072 -0.014547913 0.008066966
000010 85 1e 1b 3c c2 d5 f9 bb 02 be 92 3b 58 44 64 bc
       0.009467726 -0.007624359 0.004478217 -0.01393231
000020 93 c0 18 3c 76 a9 ca 3b c2 8c e7 3b 8b 49 28 3c
       0.009323257 0.006184752 0.00706634 0.01027144
000030 de 90 0f bc 97 92 78 3c a4 52 2c ba 5b ae 57 bc
       -0.008762566 0.0151716685 -0.0006573594 -0.013164128
000040 67 e3 38 bb 5e cb 2d bc 72 de 6d bc c2 3a 7b bc
       -0.0028211714 -0.010607569 -0.014518367 -0.015333833
000050 8e 89 10 bc bf 4f 9d bc 33 9e 97 bc f2 50 5f 3b
       -0.008821858 -0.019203065 -0.018508052 0.0034075347
000060 05 6a da bb 67 92 e4 3b ef 68 d2 3a e9 7c 20 3b
       -0.0066654705 0.0069754603 0.0016053001 0.0024488515
000070 4a 0e f9 3a 56 e6 2c bc 8e 25 23 3c 53 e6 e4 3b
       0.0019001451 -0.010552963 0.009957684 0.0069854646
000080 ba b3 8c bc 16 21 71 bc 4d 8e 70 bc 6b d0 62 3c
       -0.017175544 -0.014717361 -0.014682365 0.013843636
000090 ac 55 f5 3b a0 dd 59 bc 1a 3b 33 3b af 67 d6 3b
       0.0074870195 -0.013297468 0.002734846 0.0065431218
0000a0 1c c0 c3 bb 3b f6 24 3c 91 f1 3c 3c 24 47 76 bc
       -0.005973829 0.010068472 0.011532203 -0.01503161
0000b0 68 68 8c bb 0b d5 97 bc 91 b0 2b bc c6 13 6b bc
       -0.004284907 -0.018534204 -0.010479108 -0.014347976
0000c0 17 80 7c bc 61 18 18 3c 4f f9 89 3c ec 46 7a bc
       -0.015411398 0.009283156 0.016842512 -0.015275698
0000d0 64 0b 1b bc c9 98 4e bc d5 72 eb 3b 6d 05 40 bc
       -0.009463165 -0.012609669 0.00718532 -0.011720044
0000e0 a2 e1 26 3c 06 1a 26 3c b5 62 47 bc 20 97 18 bc
       0.010185631 0.01013804 -0.01216953 -0.009313375
0000f0 d3 de 44 3c 46 5f d3 3a bb db 5f bc 93 94 6b bc
       0.012016016 0.0016126416 -0.013663228 -0.014378685

conv_block2.1.running_mean f4 [64]
000000 16 74 ab 3d 66 08 6b 3e 22 89 77 3e 4a ce 0d bd
       0.08371751 0.22952422 0.24173406 -0.03462056
000010 8b c1 65 3e 98 43 dc be 2f 9b 9d 3d fb 47 1b 3e
       0.22437112 -0.4302032 0.076956145 0.15164177
000020 c1 7c 9a 3d 56 f1 53 3e 2f aa 44 3e dc 56 88 be
       0.07543326 0.20697531 0.19205545 -0.26628768
000030 df 7a b4 3e 2b 6a b5 3d 5d 89 12 be d0 28 92 3e
       0.35249993 0.088581406 -0.14310212 0.28546762
000040 ca 70 d9 be d7 1f 08 bf f5 c3 13 3e 0e ea 23 3e
       -0.42468864 -0.53173584 0.1443022 0.16007254
000050 9f 60 c1 3d 03 cf 50 3f 24 0e 2a 3e f3 e2 f2 be
       0.09442257 0.81565875 0.16606957 -0.47438774
000060 46 d5 f1 3e c8 a8 4c bc 47 e0 9f be c2 2c aa 3e
       0.47233027 -0.012491412 -0.31225798 0.33237273
000070 cf 7c dd bd 73 b7 31 bd 13 ea 82 3e e6 b5 08 3d
       -0.10814821 -0.04338784 0.2556921 0.033376597
000080 06 72 02 3f 13 c0 3f bf 04 a3 59 bf 23 97 bd 3d
       0.50955236 -0.74902457 -0.8501437 0.09257343
000090 81 aa 5e be d0 17 a4 3c 6b 1f 19 be 4a 41 5d 3d
       -0.2174473 0.020030886 -0.14953391 0.054017343
0000a0 79 0a 84 bd 4c c2 2c 3e 0f 42 92 3d cc e0 71 3e
       -0.0644731 0.16870993 0.07141506 0.2362091
0000b0 c1 e4 17 bd 08 58 9f bd e4 7c 2b bf 81 7b 13 3f
       -0.03708339 -0.077804625 -0.6698744 0.57610327
0000c0 4b d0 02 3e 8a 85 56 3d 5d 24 a3 3d b1 2c e4 3d
       0.1277477 0.052373447 0.0796592 0.11141337
0000d0 5d 1b 61 3e c6 77 81 be 82 25 0b 3e 07 b3 3b 3e
       0.21983095 -0.25286692 0.13588527 0.18330012
0000e0 fb a9 96 be 18 ae 19 3e 7f 56 2e 3f 23 ff bd bd
       -0.2942656 0.15007818 0.6810073 -0.09277179
0000f0 aa db 38 3c 5b fe 1b be a8 13 5a bd 0d c9 04 be
       0.011282841 -0.15233748 -0.053241402 -0.1296732

conv_block2.1.running_var f4 [64]
000000 72 d6 55 3d ad d3 7c 3d 44 30 4d 3e a1 be 6a 3d
       0.052206464 0.061725307 0.20037943 0.057310704
000010 14 ad f1 3d a7 63 b2 3e b0 c0 47 3d 5d 18 3d 3e
       0.1180059 0.34841654 0.048767745 0.18466325
000020 7c 6a c4 3d c4 06 09 3e ae 27 a9 3d 32 51 cc 3d
       0.09590623 0.13381487 0.082595214 0.09976424
000030 8c e4 e7 3d 41 d4 6d 3d 84 5f f7 3d 70 43 12 3e
       0.11322889 0.05806375 0.12078765 0.14283538
000040 db 9c b5 3e 72 dd f6 3e 77 1a db 3d 5a 5d d7 3d
       0.35471234 0.48215824 0.10698407 0.10515852
000050 c2 4d 48 3e 20 ce b7 3e 1a a6 27 3e bc e5 57 3e
       0.19560912 0.35899448 0.16371956 0.2108373
000060 09 b0 6e 3e 9b 51 c1 3d a8 49 b9 3e 7c ee 2f 3e
       0.2330934 0.09439393 0.36189008 0.17180818
000070 09 5c db 3d ac d9 8d 3e 53 e2 94 3d 97 93 a6 3d
       0.10710914 0.27705133 0.072697304 0.08133619
000080 00 e8 71 3e 60 62 1f 3f c1 1a ee 3e fe b0 1e 3d
       0.23623657 0.62259483 0.46504787 0.03874301
000090 15 10 c0 3d 2d 63 2c 3e 58 75 e9 3d 61 cb 59 3d
       0.093780674 0.16834708 0.11399335 0.053172473
0000a0 c4 8a bd 3d 88 da 8f 3d 3c c0 e1 3d e1 5e 99 3d
       0.09254983 0.070241034 0.11022994 0.074888
0000b0 95 63 e0 3d 88 2e 07 3f 70 5c 3b 3f 0c 38 71 3e
       0.10956494 0.52805376 0.73187923 0.23556536
0000c0 7e d4 82 3e a6 74 46 3d cc c7 87 3d 07 ed 7e 3e
       0.25552744 0.04845109 0.06629905 0.24895106
0000d0 5a e0 e2 3d c4 5a 6b 3e c0 8d 49 3e bd 95 20 3e
       0.11077948 0.22983843 0.1968298 0.1568212
0000e0 fb 97 57 3e 8c 7b a5 3d a4 b7 a9 3e 90 97 c1 3e
       0.2105407 0.08080205 0.3314792 0.37810946
0000f0 14 a5 a1 3d 89 04 99 3d 1e af 80 3d f6 a0 b4 3d
       0.07892814 0.07471568 0.06283401 0.08819763

head.2.weight f4 [64]
000000 40 be 82 3f d9 47 7f 3f 8c c5 81 3f 23 34 81 3f
       1.021431 0.99719006 1.0138412 1.0094036
000010 c7 25 7f 3f db 6a 7c 3f d8 9a 7e 3f 4b e1 80 3f
       0.9966702 0.9860055 0.9945502 1.0068754
000020 47 60 80 3f 49 00 82 3f d3 27 81 3f 48 53 7f 3f
       1.0029382 1.0156337 1.0090278 0.9973645
000030 6a 47 80 3f 73 1a 82 3f 31 d1 7e 3f 77 65 7b 3f
       1.0021794 1.0164322 0.9953795 0.982017
000040 15 ab 7e 3f 30 c0 78 3f 91 ee 81 3f c8 26 81 3f
       0.994798 0.97168255 1.015093 1.008996
000050 35 05 81 3f 68 7e 7c 3f 77 cc 7d 3f 5a ac 80 3f
       1.0079714 0.9863038 0.99140114 1.0052598
000060 70 43 7c 3f dd 55 80 3f dd 72 7d 3f 93 86 7d 3f
       0.985404 1.0026203 0.9900339 0.9903347
000070 c9 39 81 3f 87 7a 7e 3f 4e 3b 80 3f 95 75 82 3f
       1.009576 0.9940571 1.0018098 1.0192133
000080 ac af 7e 3f bc 0a 77 3f 31 04 76 3f a4 72 82 3f
       0.99486804 0.96500754 0.96100146 1.0191236
000090 e5 99 81 3f 69 b6 7d 3f 36 47 81 3f cf 7d 80 3f
       1.012509 0.9910646 1.0099857 1.0038394
0000a0 50 c7 7c 3f 9d f0 80 3f b4 e0 7f 3f 73 ae 80 3f
       0.98741627 1.0073429 0.99952245 1.0053238
0000b0 74 b9 7f 3f b0 40 80 3f 18 8e 7c 3f 6c 17 7c 3f
       0.99892354 1.0019741 0.9865432 0.9847324
0000c0 43 27 80 3f d7 cb 81 3f 51 ec 82 3f 0f f0 80 3f
       1.0011982 1.0140332 1.0228368 1.007326
0000d0 22 ba 7e 3f 24 1e 78 3f a4 fc 7e 3f 6b 1d 80 3f
       0.99502766 0.9692099 0.9960425 1.0008978
0000e0 33 8b 7f 3f ce 1b 80 3f 6b 74 7b 3f f8 5e 7d 3f
       0.99821776 1.0008485 0.98224515 0.98973036
0000f0 75 94 7f 3f 14 17 7f 3f ee b0 79 3f 57 46 7c 3f
       0.998359 0.9964459 0.975356 0.9854483

head.2.bias f4 [64]
000000 d6 35 5d 3c 07 40 96 3c 88 c9 95 bc cd 4b 83 3c
       0.013501605 0.018341077 -0.018284574 0.016027356
000010 a6 f4 7c 3c 34 05 a5 3b 22 55 63 3c 61 a4 9b bc
       0.015439188 0.0050360207 0.013875278 -0.01899928
000020 93 52 8f 3c 60 0b 63 3c 5e f3 82 3c c9 9f a0 3c
       0.01749543 0.0138576925 0.015985187 0.019607441
000030 5d 31 45 bc 19 30 a1 3c 7f e1 3c 3c 25 57 60 bc
       -0.012035695 0.019676255 0.011528372 -0.013692652
000040 8a a8 b4 3b 4b eb 41 bc 82 fe bd bc 3b db 98 bc
       0.0055132555 -0.011835883 -0.023192648 -0.018659225
000050 7c 5a 76 bc ef 43 a7 bc 6e 82 17 bc 55 22 83 3c
       -0.015036222 -0.020418135 -0.009247405 0.016007582
000060 3a 53 1d bc e6 40 77 3c fc 8f 4e 3c 88 7f 1a 3c
       -0.009602362 0.015091157 0.012607571 0.00942982
000070 44 e2 71 3c e3 2a 5e bc 56 22 76 3c cb a6 67 3c
       0.014763419 -0.01356003 0.015022835 0.014138888
000080 57 e5 ab bc 2f d2 70 bc 27 25 05 bc f6 41 b4 3c
       -0.020983381 -0.014698549 -0.008126534 0.022004109
000090 be 5a 8e 3c de 6e 6b bc 75 0c 50 3c f9 15 7f 3c
       0.017377254 -0.0143696945 0.0126982825 0.0155692035
0000a0 bf 1c ff bb 27 ef 97 3c 80 38 a4 3c 1f bd 96 bc
       -0.007785409 0.018546654 0.020046473 -0.018400727
0000b0 de 7c 16 3b 26 e4 9b bc 30 bd 83 bc e1 ed 7d bc
       0.002296261 -0.019029688 -0.016081423 -0.015498609
0000c0 3d 00 85 bc 58 ac 8c 3c cc e4 bb 3c eb 4a 4c bc
       -0.016235465 0.017172024 0.022936247 -0.012469034
0000d0 ab cb a9 bb f5 0b 50 bc 40 a4 6f 3c 21 7e 74 bc
       -0.00518175 -0.012698163 0.014626563 -0.01492265
0000e0 41 21 8d 3c 52 11 7a 3c 6e 97 c5 bb a5 39 75 bb
       0.01722777 0.015262919 -0.0060300147 -0.0037418392
0000f0 95 01 90 3c 69 e9 32 3c a9 3f 82 bc fd 9f 94 bc
       0.01757888 0.010919907 -0.015899496 -0.018142695

head.4.weight f4 [384, 64]
000000 13 1b e6 3d 21 13 75 3d c9 d0 ce bd 95 16 55 bd
       0.11235633 0.059832696 -0.10098416 -0.05202349
000010 3f aa 56 bd 38 88 2d 3d 9b 08 8f 3d aa c0 8f bc
       -0.052408453 0.042366236 0.06984063 -0.017547924
000020 f4 00 f8 bd 62 62 87 bd d2 56 5f bd 56 25 91 bd
       -0.12109557 -0.06610562 -0.054526158 -0.070871994
000030 8e 68 66 3d 8d 77 d9 3b 07 8b ab bd 89 d2 a9 bd
       0.056252055 0.006636566 -0.08376127 -0.082921095
000040 0b 53 b9 bd 43 10 b1 bd ed 69 db 3c 54 a4 9d bd
       -0.09049042 -0.0864568 0.026783908 -0.07697359
000050 cd ab ec bd c8 22 46 3b 25 7e 54 bc 5e 15 b6 bd
       -0.11556206 0.0030233134 -0.012969528 -0.08890794
000060 54 57 1a 3d 70 18 91 3c 52 d8 8f 3c eb fd 54 3d
       0.03768094 0.017711848 0.017559204 0.051999968
000070 fc 66 49 bd 26 98 d9 bd 19 89 a8 3d 75 16 03 3e
       -0.04917048 -0.10624723 0.08229274 0.12801535
000080 a1 67 e4 3d 8e f8 7b 3d bf d9 e2 3d 51 6d 0d 3d
       0.11152578 0.061516337 0.11076688 0.03452808
000090 84 b5 bb bd a9 d0 1a 3d af d8 a1 bd b3 9e d7 bd
       -0.09165481 0.03779665 -0.07902657 -0.10528316
0000a0 57 f7 2a 3d 71 91 78 bd c1 44 b5 bd 60 e2 e2 3d
       0.041739788 -0.06068558 -0.088510044 0.11078334
0000b0 9d b4 01 3d 2f 76 5e 3d 61 12 18 bd 93 e6 36 3d
       0.031666387 0.054311927 -0.037126902 0.044653486
0000c0 b6 b4 28 bc 69 9e ba bc c2 b9 ae bc 1d af a2 3d
       -0.010296991 -0.022780614 -0.02132881 0.079435565
0000d0 bf e4 c4 bd e3 d9 22 bd 87 63 ad 3d f7 27 14 bc
       -0.09613942 -0.039758574 0.08466249 -0.0090427315
0000e0 5c 98 85 3d 3a 5f 5a bd bd 62 a5 3d 43 fe af bd
       0.06523201 -0.05331347 0.080754735 -0.085934184
0000f0 6d fb 84 bd 89 ed ca bd 06 21 d3 bd 48 f6 a3 3d
       -0.06493268 -0.099085875 -0.10309033 0.08005959
000100 ac 7a 8a 3d 27 f7 84 3d f3 d4 9b 3d 5c 05 96 3d
       0.06761679 0.06492453 0.07608976 0.07325241
000110 2b ce 91 3d 02 ad 8e 3d a5 dc 7f bd e7 ae d5 3d
       0.071194015 0.06966592 -0.062466282 0.104337506
000120 7a 56 a4 3d 36 40 cb 3c 17 86 e8 bc 1b 1b d2 3d
       0.080243066 0.024810892 -0.028384252 0.10259076
000130 8f 56 39 bb 2c d0 f7 bd d3 60 48 bd eb 1e 04 3b
       -0.0028280353 -0.121002525 -0.048920464 0.002016003
000140 ef bf 72 3d b7 29 07 3d 78 18 1f 3d c0 ce f2 3d
       0.059265073 0.032998767 0.038841695 0.11855841
000150 9e d0 bb 3d 47 0d 88 bd 94 fa 27 bd b8 18 ac bc
       0.0917065 -0.066431575 -0.041010454 -0.02100788
000160 1f 14 72 bc b8 f5 d0 bd 13 58 fd bc af fb bf 3d
       -0.014775305 -0.10203117 -0.030925786 0.09374177
000170 b3 4e 08 be 95 af 88 3c c0 16 a3 3c 2e 23 61 bd
       -0.13311271 0.016685287 0.019908309 -0.05496519
000180 26 e4 20 bd fe 6f 70 bd f8 c2 e1 bd 6a e6 e8 bd
       -0.03928008 -0.058700554 -0.110235155 -0.11372073
000190 1a 04 57 3d c5 4e 0b bb 8b 92 93 bc c5 40 f5 bc
       0.052494146 -0.0021256667 -0.018014213 -0.029938111
0001a0 53 0f e7 bd 8a c4 da bc 8c 07 ef bd 1d f0 8a 3d
       -0.1128222 -0.026705045 -0.11671361 0.06784079
0001b0 4a d4 0e bd 2e 60 25 bd 3d bc 2c 3d 92 8b ae bd
       -0.034870423 -0.040374927 0.042171706 -0.08522715
0001c0 2f fb 94 bd 2d 0b 9b bd 9d 78 04 bd 3b 26 87 bd
       -0.07274472 -0.07570491 -0.03234159 -0.06599089
0001d0 9a c3 e6 bd 1b 45 6d 3d 95 92 8d 3d 29 04 44 bd
       -0.11267777 0.057927232 0.06912724 -0.04785553
0001e0 b0 0b c7 bd d0 10 ac 3d 08 e0 98 bd 41 38 c3 bd
       -0.09719026 0.08401644 -0.074646056 -0.09532214
0001f0 7d e9 e7 bd c3 4f ce 3c eb 3e 0a 3d 99 8a f4 3d
       -0.11323831 0.025184518 0.03375141 0.11940498
000200 7c 78 82 bd 65 de a3 bd 1a b7 0c 3e fa 77 95 3d
       -0.06370637 -0.08001403 0.13741723 0.07298274
000210 36 79 ee bd 5f d2 f4 bd 3a ef 36 3d 00 82 4e bd
       -0.11644213 -0.119541876 0.044661738 -0.050416946
000220 9e 1c 86 3c 69 b3 bb bc ca cb 3a bd 00 a6 cd 3d
       0.016371068 -0.022912698 -0.045604505 0.100414276
000230 51 b3 39 3d d3 b2 01 3d 05 d4 c4 bd af 6f 1c bd
       0.045337025 0.03166468 -0.09610752 -0.038192447
000240 98 30 6d 3d f0 42 90 3d a1 d3 fe 3c 5b 43 de bd
       0.05790767 0.07044017 0.031106772 -0.10852691
000250 ec 01 61 bd 38 b2 01 3e 35 77 d6 3d c1 9a 66 3d
       -0.054933473 0.12665641 0.10471956 0.05629993
000260 8f 8a a5 bd 9e d0 98 bd fb 6d 43 3d 88 61 d6 bd
       -0.080830686 -0.074616656 0.047712307 -0.10467821
000270 5c 91 dd bc 17 29 3b 3d ca 80 2d 3d 45 05 35 3d
       -0.027046852 0.045693483 0.04235915 0.04419448
000280 9d 5f 20 3c f8 c4 b8 3d b9 ec ed bd 24 a7 88 bd
       0.009788421 0.09021944 -0.11617417 -0.066725045
000290 63 0d 5b bd c4 c1 9d 3d da 97 e3 bd 41 ba aa 3d
       -0.053479563 0.077029735 -0.11112948 0.08336306
0002a0 3b 25 88 bd 90 f7 34 bd c0 e0 b8 3d 80 07 03 3e
       -0.06647726 -0.044181406 0.09027243 0.1279583
0002b0 cd 26 43 3d d0 e1 c9 bc 08 39 b6 3d 35 77 f1 bb
       0.047644425 -0.024643809 0.088975966 -0.007368947
0002c0 58 ce ab 3d e2 0d 2d 3d a5 c3 17 bc 5b 37 06 3e
       0.08388966 0.042249568 -0.009262954 0.13107054
0002d0 2a fa 93 3d aa f9 f9 3d d0 a6 f0 3d 5b df e8 3c
       0.072254494 0.12205823 0.11750567 0.028426817
0002e0 1c ed 77 bd 17 b3 34 bd 0d 8a a3 bc ce e7 1d bd
       -0.06052886 -0.044116106 -0.019963289 -0.038551144
0002f0 06 fe 43 3c 27 17 ec 3d f3 01 b9 3d 48 fb 1c 3d
       0.011962419 0.115278535 0.09033575 0.038325578
000300 5b 84 4e 3d 24 22 91 bd cf c2 87 3d 40 40 c4 3d
       0.050419193 -0.0708659 0.06628954 0.09582567
000310 95 77 0d 3d f2 24 e8 ba 13 59 c8 3d 41 85 b8 bd
       0.03453787 -0.0017711206 0.097826146 -0.09009791
000320 68 f6 83 3d 94 50 1e bd ed e4 f9 bd 82 65 82 3d
       0.06443483 -0.038651064 -0.12201867 0.06367017
000330 63 ae ad bc a4 93 07 bd e5 de 75 bd 27 08 12 bd
       -0.021201318 -0.033099785 -0.060027022 -0.035652306
000340 ef f4 ab bc dd fc f2 bd 51 09 a1 3d 35 4f f9 3c
       -0.020990817 -0.11864636 0.07863105 0.030433277
000350 08 9f 71 3d 35 88 01 3e 08 de d3 bc f5 b8 b0 bd
       0.058989555 0.12649615 -0.025862709 -0.08629028
000360 2d 17 b6 bd a3 3e c9 bc a7 1e be bc e6 24 36 3d
       -0.08891139 -0.024566 -0.023207976 0.044468783
000370 b8 99 99 bb 96 66 1b 3d 0e c0 8f bd d7 bf fe bd
       -0.004687514 0.03793963 -0.070190534 -0.12438934
000380 5c 63 b8 3b 02 88 0d 3d 53 05 55 bd d9 bc 3d bd
       0.005627079 0.034553535 -0.05200703 -0.046322677
000390 71 0e 1c bd 03 34 dc bd ea 19 d2 3d 2d b7 a3 3d
       -0.03809971 -0.10752108 0.10258849 0.079939224
0003a0 ca 59 ab bd b0 2a fe bd c2 ce da 3d a0 0d df 3d
       -0.08366735 -0.12410486 0.10683967 0.10891271
0003b0 56 14 d0 bd 3d a9 df 3c 20 9f 9b bd f3 06 bf bd
       -0.10160129 0.027302379 -0.0759871 -0.09327497
0003c0 ef 1f a2 bd 7a ac 68 bb ea a0 e3 3d 18 a1 90 3d
       -0.07916247 -0.0035503195 0.11114676 0.07061976
0003d0 a3 df d3 bd f1 87 97 3d ed 87 e7 3d cf f1 bb 3d
       -0.1034539 0.07398976 0.11305223 0.09176981
0003e0 51 78 e5 3d 97 24 98 bd f3 c8 82 bd 73 03 8f 3d
       0.11204589 -0.07428854 -0.06385984 0.0698308
0003f0 a5 6f cc bd 06 ba 2b bd 88 6e c9 3d 3a d6 2f 3d
       -0.09982232 -0.041925453 0.09835535 0.04292891

head.4.bias f4 [384]
000000 cc 0c d6 ba fb b4 cb bc 85 7d 35 bd 53 91 77 bd
       -0.0016330718 -0.024866572 -0.044309158 -0.060441326
000010 0c 67 71 3d 9a 0d b4 3c 60 3a 8f bc 5a c0 11 3d
       0.058936164 0.021979142 -0.01748389 0.03558383
000020 24 06 9f 3d 6e 47 88 3b 45 7b b3 bb 30 79 e3 3d
       0.07764843 0.0041589057 -0.0054773414 0.11107099
000030 38 37 69 3c 04 1b a6 3d 9f e8 0c 3e c9 b8 0d be
       0.014234357 0.081106216 0.13760613 -0.13840021
000040 2a 14 dc bc 24 29 d9 bd 53 14 ad 3b d3 b1 a9 3d
       -0.026865084 -0.1060355 0.005281964 0.082858704
000050 82 4b 20 3d e4 dd 4c bd 00 1c 6a 3d 49 a2 c8 3d
       0.03913451 -0.0500163 0.05715561 0.097965784
000060 86 05 ce bd af da d2 3c 63 71 fe bc 00 33 3d 3a
       -0.10059647 0.025739042 -0.031059926 0.00072173774
000070 8f c7 fb bc 48 0b 63 3d a2 4f 25 3d 2c ac 0a bd
       -0.030734805 0.05543068 0.040359147 -0.033855602
000080 8a c7 8e 3c 4a 96 b7 bd c3 e5 0a be 76 8c 73 bd
       0.017429132 -0.08964212 -0.1356421 -0.059460126
000090 cd df b0 bd c0 f9 11 3c 8e de fc 3d 61 c9 08 3d
       -0.086364366 0.008909643 0.123471364 0.033395175
0000a0 c6 73 a3 bd 8b fa 0e bc 89 0a 83 bd 3c 9f cf bd
       -0.079810664 -0.008726726 -0.06398494 -0.101377934
0000b0 6a 30 dd bd bb 0a 86 3d 77 17 9d bd 35 b5 9a bd
       -0.1080025 0.065450154 -0.07670491 -0.07554094
0000c0 57 b0 16 3c 29 8b 7f 3a 2e ae 99 3d c8 09 1a 3d
       0.009197316 0.00097482145 0.07503925 0.037606984
0000d0 7d 58 d7 3d 6f 2a 98 bd 6b c5 94 3d 45 8a d1 bd
       0.10514925 -0.074299686 0.07264217 -0.10231451
0000e0 df c5 12 bd ea 29 f2 bd aa 03 8c 3c f3 ca fa 3d
       -0.035833236 -0.11824401 0.01709159 0.12245741
0000f0 3b 5e 00 be 4d 65 9f bd 4b de da 3d 72 0a f4 bd
       -0.12535946 -0.077829935 0.1068693 -0.11916055
000100 b6 40 da bd b5 b7 b0 3c 33 c1 50 3d 2d 19 0c 3d
       -0.10656874 0.021571973 0.0509655 0.034203697
000110 65 9c e7 3c 83 fe cf bd da dd 16 bd 5b bb 95 3d
       0.028272817 -0.10155966 -0.036832668 0.07311126
000120 60 da c9 3d c1 88 ee 3c 5c 21 5f bd 07 8f 91 3d
       0.09856105 0.029117944 -0.054475173 0.071073584
000130 fd 49 8e bd 1d b8 bc bd d1 5b cc 3c 50 12 b1 3d
       -0.06947706 -0.09214804 0.024946125 0.08646071
000140 29 01 91 3d d7 ed 01 3e 0a bf 67 bd 39 c4 a7 bd
       0.070802994 0.12688385 -0.056578673 -0.081917234
000150 4d b9 c8 3d 03 86 9c 3d c7 78 98 3d af b4 d9 bd
       0.09800968 0.07642748 0.074449115 -0.10630166
000160 5b 55 07 3e 17 f3 83 3d 6d 09 91 3d 66 f4 ec 3d
       0.13216154 0.0644285 0.07081876 0.11570053
000170 30 ba 01 bd 47 5e 03 3e 7c 48 04 bd e5 d0 88 bd
       -0.031671703 0.12828933 -0.03229569 -0.066804685
000180 6d 46 02 3e ca c4 8c 3d 44 a5 b9 3d 61 e4 80 3d
       0.12722178 0.06873472 0.09064725 0.0629356
000190 bf 6e 80 3d aa 84 aa 3d 42 99 b6 3d 9f a8 33 3d
       0.06271123 0.08326085 0.0891595 0.04386198
0001a0 f0 57 fe bc ad 10 d4 bc a7 d7 19 3d 60 ce 09 be
       -0.031047791 -0.025886858 0.037559178 -0.13457632
0001b0 e7 e1 49 bd 28 bd ff 3d 3e a8 46 bd 76 c2 e9 3c
       -0.049287703 0.124872506 -0.048500292 0.028535109
0001c0 1a bc 98 bd 2d 40 a0 3d 68 14 e8 bd 18 36 25 3d
       -0.074577525 0.078247406 -0.11332017 0.04033479
0001d0 1c f1 7f bd ab 65 b0 bd b1 1d 37 bd e3 59 0b be
       -0.0624858 -0.086131416 -0.04470605 -0.13608508
0001e0 22 3d f7 3d f9 d9 ad 3d fa e0 6b 3d 32 6b 52 bd
       0.12072207 0.084888406 0.0575876 -0.05137176
0001f0 91 e3 bb bd 8d 56 ac 3c 3f ff 23 bd 22 ba 8d bd
       -0.09174264 0.021037364 -0.040038344 -0.06920268
000200 1e 21 fe ba 6a 4b ee bc bb b0 4d bd 95 d8 b3 bd
       -0.0019388532 -0.029088695 -0.05021737 -0.08781544
000210 d5 6d 19 3d 87 ba b9 bd e9 f7 c0 3d d2 65 45 bb
       0.03745826 -0.090687804 0.09422285 -0.0030120504
000220 9a b6 d3 3c ed 84 07 be 46 1b 1f bd c8 8e 14 3d
       0.025843907 -0.13234301 -0.03884437 0.03626898
000230 93 d7 96 bc 67 a9 0c be b7 71 64 bd d0 79 52 bd
       -0.01841334 -0.13736497 -0.05577251 -0.0513857
000240 bb 18 67 bc b0 10 27 bd a0 f8 39 3d 6f fa a6 bd
       -0.014105017 -0.0407874 0.045403123 -0.08153235
000250 0f 09 15 bd 59 bd 30 3d 30 b7 e2 bc 65 a8 58 3d
       -0.036385592 0.043149326 -0.027675241 0.05289497
000260 7c 75 c1 bd 44 20 a0 bb d0 ce fb 3d 73 7d 92 bd
       -0.094462365 -0.004886659 0.12295306 -0.07152834
000270 ff 0a ac bd be 9d 52 bd fb 0d 3d bd 67 31 38 bd
       -0.08400535 -0.051419966 -0.04615591 -0.04496899
000280 3d 37 a2 3d 4f f0 5c bd a7 cc ee 3d ca 6c d3 3d
       0.07920692 -0.053940114 0.11660128 0.10323484
000290 04 51 8c 3d bb fc 9e 3d bc e5 31 3c 6a 6f ee bd
       0.0685139 0.07763048 0.010857996 -0.11642344
0002a0 bb 10 bd 3d 50 bc 6f bd 4a 1a 04 be ba 9a a4 3d
       0.09231707 -0.0585292 -0.12900653 0.08037324
0002b0 73 0b e5 bd eb 40 33 3c fa 61 0e be c7 e5 0c be
       -0.111838244 0.010940771 -0.13904563 -0.13759528
0002c0 9a 99 29 3d 9e 8d 28 3d 8c f1 a3 3d a0 b8 57 bd
       0.04140625 0.04115068 0.08005056 -0.052666306
0002d0 0f 2b 67 bd 49 7e 86 bd 27 56 09 3e 2b 72 c9 3d
       -0.05643755 -0.06567056 0.13411771 0.09836229
0002e0 80 c3 0e be 2c 7b 08 bd 8b 7e 4a bd 75 1d 4b 3c
       -0.13941765 -0.03332059 -0.049437087 0.01239716
0002f0 f7 cd ef bc 65 67 91 bd 4f ee 9f bd c3 43 08 bd
       -0.029273016 -0.07099799 -0.07809126 -0.033267748
000300 8f 1a f3 bd 9d 8a ee bd b8 58 04 be d2 ec d2 bc
       -0.118703 -0.11647532 -0.12924469 -0.02574769
000310 c0 b3 9e bc 6f 97 85 3d 27 1c 0d 3e 74 0e ad 3d
       -0.01937282 0.06523024 0.1378027 0.08450022
000320 5d ea ec bd b6 51 87 bb 0b 6d db bc 2e 2a fe bc
       -0.11568139 -0.0041296137 -0.026785394 -0.031025972
000330 21 12 22 3d 94 5b c4 bc 2f c6 0c 3e b2 f8 8d bd
       0.03956807 -0.02396945 0.13747476 -0.069322005
000340 10 0e bd bd 89 a1 90 bd ea d0 0a be 7a 57 2c bb
       -0.09231198 -0.070620604 -0.13556257 -0.0026297257
000350 55 fa dd bd f8 35 e3 3d 06 22 0a be 9b 6d b1 bd
       -0.10838763 0.11094278 -0.13489541 -0.08663484
000360 3c 5d 9a bd cc ac 27 bd cd b8 e4 bb 4d 7e e1 bd
       -0.07537314 -0.040936276 -0.006980038 -0.11010418
000370 c3 f4 10 3d 1e 3d d7 3c 12 19 37 bd 31 5a 43 bc
       0.035389673 0.02627426 -0.044701643 -0.011923359
000380 57 1a 36 3d dc d2 42 bd 23 86 00 bd 10 57 0f 3d
       0.044458713 -0.047564372 -0.031377923 0.03499514
000390 bc 0d a2 3d 32 d9 aa 3d 49 a3 c6 bd a9 f2 f7 bd
       0.07912776 0.08342208 -0.09699113 -0.121068306
0003a0 6d 92 c5 bd 15 23 65 bd 13 cc f6 bd 99 9a a1 39
       -0.09647069 -0.05594166 -0.12050643 0.00030823497
0003b0 2e e4 3f 3d c1 77 7d 3d 7d 14 34 3d 52 e4 94 bd
       0.04684847 0.061881784 0.04396485 -0.07270111
0003c0 93 62 ce 3d 2f ff ac 3d b8 06 7e bd 05 0f bc 3d
       0.10077395 0.0844711 -0.062018126 0.09182552
0003d0 5e 41 c8 3c 7b 16 69 3c 45 21 61 3d e3 c1 86 bd
       0.024445232 0.014226551 0.05496337 -0.0657995
0003e0 e9 52 0e 3d 76 52 05 bd 27 7a 4c 3c b7 5b de 3d
       0.034747038 -0.032549344 0.012480295 0.10857337
0003f0 e6 c5 4c 3c 2d f8 d8 bd da a2 0e bd d3 7f a5 bc
       0.012498355 -0.10594211 -0.034823276 -0.020202553
